CARS_MNIST/modelsMNIST_weights.pth (torch, 361783 bytes, 20 tensors)

conv1.weight f4 [6, 1, 5, 5]
000000 d1 35 02 3e 81 d2 e0 3e d3 b9 f0 bd 1d 94 71 bd
       0.12715842 0.43910602 -0.11754193 -0.058979142
000010 94 92 b4 bd 56 c3 d3 3e 94 d7 f6 3e f3 47 cf 3d
       -0.0881702 0.41359967 0.48211348 0.10121145
000020 84 d7 10 3e 89 8f 98 3e ff 01 0e 3f 05 66 b2 3e
       0.14144713 0.2979701 0.55471796 0.3484346
000030 24 a2 c4 bd bc a9 3b 3d 61 a9 f3 3e 41 7b e1 bc
       -0.09601238 0.04581617 0.47590163 -0.027524592
000040 e2 c7 3d 3e b0 87 15 be 84 7e 8d be 73 b6 97 bd
       0.1853328 -0.14602542 -0.27635586 -0.07407846
000050 f6 64 07 3e ff 9e 0f be d2 10 21 be 65 d0 08 be
       0.13222107 -0.14025496 -0.15729073 -0.13360746
000060 5a 98 96 be ee 8b 6e 3e d0 2d 5c 3e 17 16 06 3e
       -0.2941311 0.23295566 0.21501851 0.13094364
000070 b7 47 d0 be 13 37 d3 be 6f f5 08 3e a8 31 f8 3e
       -0.40679714 -0.41252956 0.13374875 0.48475385
000080 ee b6 90 3e e1 16 e6 be 3a 58 17 bf e2 ed 51 be
       0.28264564 -0.4493933 -0.59119 -0.20500901
000090 63 52 35 3e 9b b5 01 3f 2e 56 fb bd 54 df 80 be
       0.1770721 0.5066773 -0.12272297 -0.25170386
0000a0 13 c9 43 3b 29 38 34 3d fb 36 1f 3f 00 61 0b 3f
       0.0029874488 0.04399887 0.6219327 0.54444885
0000b0 5a 8b b6 3e 71 6c 07 be ad 93 35 3e 5b da ea 3d
       0.35653192 -0.13224961 0.17732115 0.11467429
0000c0 4f 2d ea 3e 03 cb ee 3e c2 cd 4f 3e c4 58 80 be
       0.45737693 0.4663926 0.20293334 -0.25067723
0000d0 0d 3a 20 be 71 8f 7e be c2 fd 55 be 27 f7 d5 bc
       -0.15647145 -0.24859406 -0.20897582 -0.026118828
0000e0 6f 1e 51 bd 2a d7 73 be 3c 2e ef 3a d1 fb e6 bd
       -0.051054414 -0.23812547 0.0018248032 -0.11278499
0000f0 86 a5 33 be 06 25 26 be a3 1a e2 bc 9d a4 7f bd
       -0.17543611 -0.16225061 -0.027600592 -0.062412847
000100 2a 78 8a bd a1 bb 18 be 6a d8 f6 bd 59 50 04 3c
       -0.06761201 -0.14915325 -0.120529965 0.008075797
000110 6e 4b 5c bc 09 c7 dc bd cc 07 1b be a5 df 41 be
       -0.013445718 -0.107801504 -0.15139693 -0.1893297
000120 45 3c 0e 3c 85 6d 19 bd 8e 40 62 bd 7d ac ce 3d
       0.008681362 -0.03745796 -0.055237345 0.10091493
000130 23 05 82 3e 69 f3 e6 3e d6 2d 1b 3f f2 70 ab 3e
       0.25394544 0.45107582 0.60616815 0.33484608
000140 bd 91 cf 3d ed 1d 13 3f 49 02 28 3f 9b 0f 1d 3f
       0.10135219 0.5746754 0.65628487 0.6135194
000150 27 24 21 3e f6 d5 d7 3d 3c 90 ad 3e da 3a 97 3e
       0.15736447 0.10538857 0.33899105 0.29537088
000160 2b 00 b5 3e 5e c3 44 3e 2e 23 4d bd 48 3a 81 3e
       0.3535169 0.19215152 -0.050082378 0.25239778
000170 b7 d7 a9 3d f1 0a 78 be 05 a9 be 3d 76 c7 a6 be
       0.082930975 -0.24222924 0.09309582 -0.32574052
000180 09 8d 74 be 83 4f ce bd a2 e8 0b be 93 a7 09 3e
       -0.23881926 -0.100737594 -0.13662961 0.1344283
000190 7a 75 5a 3e 97 35 35 3e be 26 c8 3d ac 6c 13 be
       0.21333876 0.17696224 0.097730145 -0.14396924
0001a0 b1 2b 92 bd 49 8b d4 bd f0 49 7e be b6 42 b8 be
       -0.0713724 -0.10378129 -0.24832892 -0.35988396
0001b0 23 c3 86 be 95 24 50 be d6 b1 20 be d6 a7 aa be
       -0.26320753 -0.20326455 -0.15692839 -0.33331174
0001c0 cc ec 34 be bf 9e 53 be 44 72 6a 3e d2 ac 74 be
       -0.17668456 -0.20666026 0.22895151 -0.2389405
0001d0 d8 62 3f be 9d a5 af 3c 1a 67 49 3e 8c 8e 84 3e
       -0.1869005 0.021441275 0.19668236 0.25890005
0001e0 d1 1c 52 be c5 4b 02 bc 8a 29 c9 3d b9 32 bc 3e
       -0.20518805 -0.007952635 0.09822376 0.36757448
0001f0 04 fc 38 3e 71 80 d1 bd 73 e4 b5 be dd 2c 8a be
       0.18064886 -0.102295764 -0.35525855 -0.26987353
000200 63 5f 0f bd 1b 4e bb 3d 65 44 e9 3d 04 41 65 be
       -0.035003077 0.09145757 0.11389998 -0.22388083
000210 78 8d 11 be e1 a3 02 3e 50 24 ff bd 16 a9 b0 3e
       -0.14214122 0.12757827 -0.12458098 0.34504002
000220 3a 1a f4 3e e9 ca 09 3e 55 8c a6 3d 25 94 29 3e
       0.4767626 0.1345631 0.08132235 0.16560419
000230 f8 91 d3 bc 1a 6d ac 3e a2 a2 b0 3e 77 75 42 bc
       -0.02582644 0.33676988 0.3449908 -0.011868826
000240 a6 44 1a be f6 61 5e bd 19 95 ba be 1c 06 a2 bd
       -0.1506525 -0.05429264 -0.36441877 -0.079113215
000250 d0 94 1c 3e 01 71 88 bd
       0.15291142 -0.06662179

conv1.bias f4 [6]
000000 2c ba af 3d e7 50 76 3d 18 34 64 3e 61 f9 db 3e
       0.08580431 0.06013575 0.22285497 0.42963699
000010 d6 7a d3 bc a7 b5 1a 3e
       -0.025815409 0.15108357

conv2.weight f4 [16, 6, 5, 5]
000000 35 74 2e 3e 53 37 ad 3d a6 00 06 3d 42 bb b2 3d
       0.17036517 0.08457818 0.032715462 0.08727123
000010 0f e9 8f bd 23 9e 72 bc e2 d2 58 3c e4 5b aa 3c
       -0.07026874 -0.014808211 0.013233872 0.02079577
000020 83 86 57 3d 8b 4f 8e bd 6e 45 87 3d 09 08 dd bd
       0.052618515 -0.06948765 0.066050395 -0.10792548
000030 d6 40 32 be 57 b7 53 be a3 a5 0d be de 4f a7 3d
       -0.17407545 -0.20675407 -0.13832717 0.0816953
000040 54 40 60 bd 8a 3f fa 3d d8 76 c1 3d 61 78 0e 3d
       -0.054748848 0.1221915 0.09446496 0.03478277
000050 b1 b7 9c 3d e0 73 56 3d 53 5c f8 3d 2b 5e 16 3e
       0.07652224 0.0523566 0.121269844 0.1468436
000060 7b 7d 51 3d 37 b0 ee bd 49 2d 05 bd 15 e0 4a 3d
       0.051145058 -0.11654704 -0.03251389 0.049530108
000070 18 1d 8b bc 17 06 e7 bd 06 3e d1 bd e5 f9 85 bd
       -0.016981646 -0.112804584 -0.10216908 -0.06541804
000080 61 3a 3b be fd 1e c5 bd 5b cb 14 be cd 8a 68 3d
       -0.18283989 -0.09625051 -0.14530699 0.056772996
000090 0c 81 5d bc 56 0c 30 bd d3 6d 36 3d b0 9a 0b bc
       -0.013519537 -0.042980514 0.04453833 -0.008520767
0000a0 23 ee d8 3c 51 1a 6a bd 5c f2 67 3c 58 80 cd 3d
       0.02648074 -0.057154004 0.014156904 0.10034245
0000b0 a5 20 f4 3c 86 36 ff bc 75 06 43 3d c2 73 91 3a
       0.029800722 -0.031153928 0.04761358 0.0011097121
0000c0 c1 82 9e bb a9 a0 33 3d e9 91 05 bd 10 be d5 bc
       -0.0048373644 0.04385439 -0.032609854 -0.026091605
0000d0 ef 96 59 3d 10 0c 5b bc a6 5f 10 bc a5 e0 72 bd
       0.053122457 -0.013369575 -0.008811867 -0.05929627
0000e0 00 bc 38 3d 8d 44 73 3c 05 62 ca bc 01 74 ad 3d
       0.045101166 0.014847887 -0.024704942 0.084693916
0000f0 83 f8 43 bd e5 a7 3a 3c 97 9e b4 bb 72 7f 6f 3d
       -0.04784442 0.011392568 -0.0055120694 0.05847115
000100 06 2e 8c 3c 2e fd 64 3d 29 30 9e 3c a2 2c 16 3d
       0.01711179 0.055905513 0.019310074 0.03666366
000110 98 df d8 bc 77 5a 9f bc 48 34 45 bd 68 69 2c bd
       -0.026473805 -0.019452317 -0.048145562 -0.04209271
000120 bb 2b 79 bd c3 06 95 bd 49 0c 35 bd 3a f5 29 3e
       -0.06083272 -0.0727668 -0.04420117 0.16597453
000130 7f 26 a9 3d b5 74 60 3d 84 11 c9 3c 1b 9a 6c 3d
       0.08259296 0.0547988 0.024544485 0.057764154
000140 68 8f 73 bd c4 e8 fe bd 94 ca b2 bd e1 98 fd bc
       -0.059462935 -0.1244674 -0.08730045 -0.030956687
000150 8c a0 d3 3c 46 1c 03 be d1 76 63 be e3 10 ab be
       0.02583339 -0.12803754 -0.22213294 -0.3341132
000160 e1 d5 df be 28 a9 9d be 18 18 9c bd 2e 34 5c bb
       -0.43717864 -0.30793118 -0.07621783 -0.0033600437
000170 67 e0 74 bd ff 95 fd bc 11 d3 91 bd 55 3f 3d 3d
       -0.05978432 -0.030955313 -0.07120336 0.046202976
000180 63 11 7b 3d 84 8e e8 3d 1d a1 6f 3e 42 a0 74 3e
       0.06129588 0.11355308 0.23401304 0.23889259
000190 10 26 cf bd 53 65 ea bc 5b 01 9a bd 26 db 91 3c
       -0.10114682 -0.028612768 -0.0751979 0.017804693
0001a0 cc 3b 2f 3d 89 16 c7 bd c8 df 8f bd cf 37 ba bd
       0.042781636 -0.09721095 -0.07025105 -0.09092676
0001b0 9f 55 d0 bb c4 97 3f bc 3b 75 8d 3d 8c 74 c1 3d
       -0.006357863 -0.011693899 0.069071256 0.09446058
0001c0 bc e3 d7 3d 42 0a f0 3b 3f d3 8d 3d e1 9b 00 3d
       0.10541484 0.0073254416 0.069250576 0.031398658
0001d0 97 23 01 3e 72 53 18 3d 88 0d 30 3d 15 2d 97 bd
       0.12611233 0.037188955 0.042981654 -0.073816456
0001e0 9a 21 84 bd fa 82 73 bc 53 1f a2 3d f0 b9 55 3d
       -0.064517215 -0.01486277 0.07916131 0.052179277
0001f0 be 83 6b bd 44 0a 53 bc 39 6e 38 3d 55 9e b2 3d
       -0.057498686 -0.0128808655 0.04502699 0.08721606
000200 e6 6d ec 3c 92 9d e2 bb 0d c4 04 3d 0b 8d d8 bd
       0.028860997 -0.0069157565 0.03241353 -0.10573777
000210 cc 20 12 be 48 86 ba bc 1d 0f 05 be 07 f7 64 3d
       -0.14270324 -0.022769108 -0.12994047 0.055899646
000220 67 d5 8b 3d 2a 72 9f 3c 5f 80 bb 3d 97 6e bc bd
       0.06827813 0.019463617 0.09155344 -0.09200781
000230 20 3e cb bc d8 16 c4 3d 2f 84 6b 3d 4c bc 12 3e
       -0.024809897 0.095746696 0.057499107 0.14329642
000240 4d 8c d8 3d a4 7f 5e bd 28 08 bb 3d 22 7d a6 3c
       0.10573635 -0.054320946 0.09132415 0.02032334
000250 6b 10 0d bc 04 5a a4 bc 52 6e 91 bd db 07 ac bc
       -0.008609871 -0.020062454 -0.0710112 -0.02099984
000260 aa 7a ad 3d 47 ba 82 3d 15 6c 0f bc 95 b2 57 bd
       0.08470662 0.06383186 -0.008753796 -0.052660543
000270 da e3 8c bd 4d 8b 69 3d 97 9a 8e bd 4e 2f 9b bc
       -0.06879397 0.057017613 -0.069630794 -0.018943455
000280 81 69 8d bd 77 14 85 bc a4 fa 91 bd 33 6e 2a bd
       -0.06904889 -0.01624511 -0.07127884 -0.041609
000290 59 d9 03 be fb 17 97 3d ea dc 53 3d 7f 21 84 3d
       -0.1287588 0.07377621 0.051724352 0.064517014
0002a0 38 93 11 3e 40 31 7e 3d 33 a4 17 3d 41 cc 2f bb
       0.14216316 0.062058687 0.037021827 -0.0026824626
0002b0 77 86 59 3d af 5a 21 3d 96 a2 8d 3c 32 05 b9 bd
       0.05310675 0.039393123 0.017289441 -0.09034194
0002c0 7c 06 ad 3c 77 98 a9 3b 1d a0 03 bd dd 20 bc 3d
       0.021121256 0.005175646 -0.032135118 0.09185956
0002d0 36 57 87 bd 7a a5 27 bc 33 e2 ab bd a5 9d 9c 3c
       -0.06608431 -0.010232324 -0.083927535 0.01911814
0002e0 2c ad 99 3d da cf 27 3e 1b c0 b6 3d 9d c4 5a 3e
       0.07503733 0.16387883 0.0892336 0.21364065
0002f0 c1 73 93 3d 47 5f 89 bd 8c fc 0f 3e 2b ee 33 3e
       0.07199813 -0.06707626 0.14061183 0.17571323
000300 2e 23 27 3e d1 76 90 bd e8 6f 81 3b ca 93 b1 bd
       0.16322014 -0.070539124 0.003950108 -0.08670767
000310 cb 3e 01 be 79 d5 a3 bd f3 b8 7b bd fc 6c 84 bd
       -0.1262161 -0.07999701 -0.06145568 -0.064660996
000320 c4 91 24 bb 39 94 97 bb 1e 6d 29 3d 7f 89 c0 3c
       -0.0025111297 -0.004625824 0.041363828 0.023503063
000330 40 9c bf bb 59 9a 5d bd aa d1 66 bd 16 a4 f7 bc
       -0.005847484 -0.054102276 -0.056352295 -0.03022961
000340 b5 6b 5b bc 8e 4a 39 bb 7b 49 e1 bd a5 45 53 3d
       -0.013392379 -0.0028273198 -0.110003434 0.05158009
000350 8f ee a2 bc 6f 21 89 bd 77 ef e6 bd 71 1a 42 3d
       -0.019889144 -0.0669583 -0.11276143 0.047388498
000360 bf 7f eb bd ff 18 83 bb d0 4e 50 bd ce cf 90 bd
       -0.11498975 -0.0040007825 -0.05085641 -0.070708856
000370 fd 9f 53 3d c1 91 ad bd 14 7a 6d 3b 33 6a 63 3d
       0.05166625 -0.08475066 0.0036236094 0.0555212
000380 a7 a1 24 3c e8 7f 26 3c 4f 48 b9 39 58 83 d8 bc
       0.010048307 0.010162331 0.00035339824 -0.026429817
000390 30 53 26 3d 66 2a a7 3b 0d 86 06 bb 56 4b 32 bd
       0.040606678 0.00510149 -0.0020526678 -0.043528877
0003a0 5d af 1d 3d e2 52 37 bd b0 c9 13 be e9 c9 8d bd
       0.038497318 -0.044756778 -0.14432406 -0.06923277
0003b0 3c dd 50 bd b9 61 69 be 82 e2 2a be fa c9 8b bd
       -0.050992236 -0.22791184 -0.16687968 -0.06825633
0003c0 e6 8b ec 3c a4 a3 4d 3c 5d ac 88 3d 02 39 ae 3d
       0.028875303 0.012551222 0.06673501 0.08506967
0003d0 bb fc 89 3e 05 2b b6 3c 1c f8 a4 3d 4f b0 0a 3e
       0.2695063 0.02223731 0.080551356 0.13543819
0003e0 59 e7 d5 3d b4 5a ac bc 42 06 f8 3c 12 81 4d 3d
       0.10444517 -0.021039344 0.030276421 0.05017192
0003f0 c6 bc b6 bb d2 1d fa 3c d1 5d 33 bd ab 07 ed bc
       -0.0055767028 0.030531798 -0.043790642 -0.02893432

conv2.bias f4 [16]
000000 95 9b 5d 3d 99 ba 6a 3d 33 6e 1d bd 79 15 71 3c
       0.054103453 0.05730686 -0.038435172 0.014714592
000010 be e4 7d bd df 69 74 3d 43 29 6e 3d 6f 9c 17 3d
       -0.061985724 0.05967128 0.05814482 0.03701442
000020 0f a7 cd 3d ca 9a c0 bc 88 7e cf bc 80 aa a8 3d
       0.100416295 -0.02351131 -0.02532889 0.08235645
000030 ec 34 40 3d 7f 98 57 3d a1 cc a3 bb 8d 31 9b 3d
       0.04692547 0.052635666 -0.004998759 0.075778104

conv3.weight f4 [120, 16, 4, 4]
000000 ea 3f 29 3b 52 a6 e5 3c 68 96 26 bd 09 89 52 bd
       0.002582545 0.02803341 -0.040670782 -0.05140022
000010 41 38 ed bb dd 39 58 bd d1 21 a0 3d 2f a0 a4 bc
       -0.007239372 -0.052789558 0.0781895 -0.020095913
000020 9a de 0f bd 62 95 86 3d ca 60 a2 bc 5b 8f 68 bd
       -0.0351244 0.06571461 -0.019821543 -0.05677734
000030 76 bd f6 bb 06 b8 9c 3b 4f b2 0e 3d c6 93 16 bd
       -0.0075299097 0.0047826795 0.034838017 -0.03676202
000040 3c c1 f3 3c bc ed 56 bd 88 53 6f bd f6 d6 97 3c
       0.029755227 -0.052472815 -0.05842927 0.018535119
000050 65 81 2d 3d 46 61 7e 3c 95 61 2a 3d 93 51 7f 3d
       0.04235973 0.0155261215 0.041596968 0.062333655
000060 d9 73 f7 bb 8f 47 7f 3d 6e 22 81 3c dd 35 cf bb
       -0.007551652 0.062324103 0.015763488 -0.0063235597
000070 58 da 2d bd 56 7b 6a bd 9c b4 3f bd 39 f7 ca 3c
       -0.042444557 -0.05724653 -0.046803102 0.024776088
000080 b8 6b c6 bc d3 23 7e 3d 57 2a 81 3c 9d 22 44 3d
       -0.024221286 0.062045883 0.01576726 0.047884572
000090 6a e2 74 3d d2 a8 30 bd 1a 48 fc bc da 3b 04 bc
       0.059786238 -0.04312975 -0.0307961 -0.00807091
0000a0 19 69 25 bd 9a 50 04 3b db 2c 9f bc c4 df 4e 3d
       -0.040383432 0.0020189644 -0.019430568 0.05050637
0000b0 e1 e2 de bc d1 bf f9 bb 0d d2 cf bc 36 6c 71 3c
       -0.027207794 -0.0076217433 -0.025368715 0.014735272
0000c0 d9 45 bd 3c 1c a8 36 bc ef 5e f3 3c 66 46 ce 3b
       0.023104595 -0.011148479 0.029708354 0.0062950132
0000d0 2b 68 87 bc ff 5b 0a bb 0f 21 96 3c 80 5b 8f 3d
       -0.016529163 -0.0021111963 0.01832631 0.06999874
0000e0 ac 29 8f bc 18 ca 95 3d b8 4a 2a bd 2f 71 19 3d
       -0.017475925 0.07313937 -0.041575164 0.037461456
0000f0 72 54 cf bc ab 10 83 bd 97 55 33 bb 3e 7f 9a bb
       -0.025308821 -0.063996635 -0.0027364248 -0.0047148755
000100 cb f7 3b 3c 13 55 02 3d ac 04 b1 bc 57 a6 36 3c
       0.011472653 0.031819414 -0.021608673 0.011148057
000110 0d 0e c4 3b 31 65 e5 bb 3a b1 a9 bc 65 2a 16 3c
       0.0059831203 -0.0070005883 -0.020714391 0.009165381
000120 bf 0b 9d 3c 30 9b 38 3d 4d e1 81 3c 5c 77 4c bc
       0.01917064 0.045069873 0.015854502 -0.012479629
000130 e5 b0 1e ba 6a 52 d3 3c fc bc fc bb 0d 94 0f 3c
       -0.0006053581 0.025796134 -0.0077129584 0.008763325
000140 d7 62 f3 bc 0c a2 59 bc 4f d1 1d bc f0 d9 32 3d
       -0.029710216 -0.013283264 -0.009632423 0.043664873
000150 09 42 5c bc b4 43 a1 bd 51 2b 30 3d f4 7a dc bc
       -0.013443478 -0.078742415 0.04301006 -0.026914097
000160 c2 47 2b bc 37 a9 1a 3d 89 1e 44 bd 2b 49 4a 3d
       -0.01045412 0.037759032 -0.047880683 0.049386185
000170 dd 30 52 3d 51 e0 9d 3c 49 4e 48 3b 42 d9 f1 ba
       0.05131613 0.019272001 0.003056424 -0.0018451589
000180 41 0f 01 3c c4 95 25 3c 27 83 5e 3d 5e 79 0a bd
       0.007877172 0.010106508 0.054324295 -0.03380715
000190 04 1b 81 bd 17 35 21 bb 4d 6b 6a bb 81 d3 a6 bd
       -0.06303981 -0.0024598294 -0.0035769523 -0.0814581
0001a0 03 62 4a 3d 1f 0f 1c 3d 46 bc 23 3d f0 c7 a1 bc
       0.049409878 0.038100358 0.039974473 -0.019748658
0001b0 e5 56 97 3d 06 32 a6 3a 4f 3d 9c 3d fa 0b 03 bd
       0.07389621 0.0012679703 0.07628881 -0.031993844
0001c0 4a 41 ac 3b c5 80 03 bd db 41 a1 bb 96 ca 2e bd
       0.0052568065 -0.032105226 -0.0049211807 -0.04267367
0001d0 2b cc 59 3d 5c 18 88 3d d8 2f cd bc 44 cb 10 bd
       0.053173225 0.06645271 -0.025047228 -0.0353501
0001e0 33 46 b9 bd e1 15 68 bd 30 32 54 bd e4 13 2a bd
       -0.090465926 -0.05666149 -0.051805675 -0.041522875
0001f0 87 55 21 bd dd 55 d1 bc 3e a7 0e 3d 0b c2 d1 bb
       -0.039388206 -0.025553638 0.034827463 -0.0064013056
000200 a3 0c 58 3d 91 bc 52 3b 61 0d 01 bd 04 aa ac 3c
       0.052746426 0.0032155851 -0.0315069 0.021077164
000210 c3 8e c2 3c ff 56 09 bd e3 af a2 3c 56 a3 9f bc
       0.023749715 -0.03353023 0.01985926 -0.019487064
000220 bf 60 0f 3c 7a df 64 3c f3 3a 03 bd 03 46 a3 3c
       0.008751093 0.013969297 -0.03203864 0.019930845
000230 43 58 1e bd d0 78 b9 3c 0c ef 3b bd 11 9f 44 3d
       -0.03865839 0.022640616 -0.04588227 0.04800326
000240 21 82 33 bd 29 41 aa bd 6d be 77 bb 78 ff 49 3d
       -0.043825272 -0.083132096 -0.0037802712 0.0493159
000250 23 9e e9 bb 9a 23 8e 3c eb 1f 81 3d aa b9 15 3d
       -0.007129447 0.01735096 0.06304916 0.036554016
000260 b8 62 dc 3c 6c 73 19 3d e2 41 08 3d 3c 80 47 bd
       0.026902542 0.03746359 0.033265956 -0.04870628
000270 ab 51 2a 3d 5a b5 97 3c 83 76 48 bd 99 29 01 bd
       0.04158179 0.018519092 -0.048941147 -0.03153381
000280 00 b7 fd 3c d8 ea 7b bd 4b a2 66 3d 08 49 5d 3d
       0.03097105 -0.06150326 0.05630712 0.054024726
000290 c6 86 97 bb 4a d7 ef 3c 96 fd 1e bd b9 36 16 bd
       -0.0046242205 0.029277463 -0.038816057 -0.03667328
0002a0 48 e8 a2 bc d9 2f dd 3c 3d f5 66 bc 39 d8 86 3d
       -0.019886151 0.027000355 -0.014096555 0.0658421
0002b0 33 a2 10 3d d4 2f 16 bc b1 c7 1d 3d a4 df 06 3d
       0.035310935 -0.009166677 0.03852052 0.032928124
0002c0 35 f6 33 3d 44 50 9b bd 57 a1 0f 3d 8e 35 18 bd
       0.043935973 -0.07583669 0.035065975 -0.03716045
0002d0 08 0d 3f bc b8 d7 9a bc a7 5d 24 bc a4 0d e8 bc
       -0.011660822 -0.01890169 -0.010032094 -0.028326817
0002e0 54 e2 a4 3d 3b 59 17 3b ac 31 46 bd a4 d7 85 3c
       0.08050981 0.0023093957 -0.048387215 0.016338177
0002f0 83 26 47 3d a9 2e b0 3d 36 a4 79 b8 6a e1 74 3d
       0.048620712 0.0860265 -5.951916e-05 0.059785284
000300 c0 7f b1 3c d9 c5 e6 3c d9 67 cc 3a fa a8 bf 3c
       0.021667361 0.028170513 0.0015594914 0.023396004
000310 c2 21 8c 3d e6 98 6a 3c 4c be b2 3d a9 a3 07 3d
       0.06842376 0.01431868 0.087277025 0.033115063
000320 b8 38 3f 3d ea bb b3 3d d8 e9 aa bc 80 2b 71 3d
       0.04668495 0.08776076 -0.020863459 0.058879375
000330 40 00 c7 3c a5 c8 ef bc 0f e2 c1 bd 79 62 74 bd
       0.024292111 -0.02927048 -0.094669454 -0.059664223
000340 6b 7c 62 3d c5 c9 25 bd 4e 22 69 bd 33 91 4f 3d
       0.055294435 -0.040475626 -0.05691748 0.050675582
000350 0a a9 8e ba 31 98 8d bd 17 85 c9 3b 3a 5a 1a 3c
       -0.0010884118 -0.06913794 0.0061498987 0.009420926
000360 73 52 8f bc ba 47 33 3c c6 1e 4e 3d 01 2d ae 3d
       -0.01749537 0.010942394 0.050322317 0.085046776
000370 26 dd c1 bc 17 1e 9d bd 53 49 43 3d a0 45 50 3d
       -0.023665022 -0.07671755 0.04767735 0.05084765
000380 0a 71 48 3c f2 70 9e bc 7d a2 2c bd 6a ed e1 bb
       0.012233982 -0.019340966 -0.04214715 -0.006894757
000390 0f 1b ab 3c 81 ea 46 bd f0 ec b0 3c b9 8a 14 bd
       0.020886926 -0.048563484 0.021597356 -0.03626511
0003a0 83 d7 77 3c 37 32 9c bc 3d e8 9e bb 86 fb 58 bd
       0.015127066 -0.019066913 -0.0048494623 -0.052974246
0003b0 d3 50 58 bd 4b 3a 85 bd d2 ba d6 bc 7b e5 8b 3d
       -0.052811455 -0.06505259 -0.02621213 0.06830879
0003c0 d9 6f d6 3c a6 de f1 3b 90 3a fa 3c 69 48 30 3d
       0.02617638 0.007381278 0.030545503 0.043037806
0003d0 fe 00 7e 3b 00 51 de bc 07 32 5c 3d 45 c5 2b 3d
       0.0038757916 -0.027138233 0.053758647 0.041936178
0003e0 fc 68 82 bd 2c f0 f9 3c c7 d1 5e 3c a5 d4 e4 3c
       -0.063676804 0.03051003 0.0135998195 0.027933428
0003f0 bf 78 d4 bc 34 8f 4a bb 57 cf cd 3c f3 56 5d bd
       -0.025936482 -0.003090811 0.025123281 -0.054038

conv3.bias f4 [120]
000000 77 db 27 3d 0a b5 a8 bb 73 f9 75 bc 06 d5 f4 bb
       0.040980782 -0.0051485347 -0.015013087 -0.0074716834
000010 ad d1 9c bb 46 74 11 bd 2e 38 5f 3d 6b 8d 13 3d
       -0.0047857375 -0.035511278 0.054496937 0.03602354
000020 ef 79 10 bd 55 b8 97 3a f2 2b 0e bd 3e fd d0 bc
       -0.035272535 0.0011575321 -0.03470988 -0.02551138
000030 eb bd 01 3c 95 93 5e 3d e7 c1 8c bb b5 cd e4 bc
       0.007918815 0.054339964 -0.004295576 -0.02793012
000040 0a e7 03 3d 38 99 bd bc 9b 69 54 bd 7d e9 01 bd
       0.032202758 -0.02314435 -0.051858526 -0.031716812
000050 2e f5 04 bc 68 e4 81 3d 9f ac d6 ba a3 03 c5 3c
       -0.008115096 0.06342393 -0.0016378349 0.024049586
000060 69 d6 41 3d 7d 64 03 bd 85 af 4b bc 0a 3f d8 39
       0.047323618 -0.032078255 -0.012431984 0.00041245698
000070 c5 53 cb bc e1 c6 36 3c cd d3 2d bc 02 7f 1c 3d
       -0.024820218 0.011155815 -0.010609579 0.03820706
000080 a9 87 52 bd 67 42 3d bd 33 01 a6 3b 19 d3 02 bd
       -0.051398907 -0.046205904 0.005066061 -0.0319396
000090 56 c8 94 3c b6 3c c5 bb 4d 31 7e 3d 22 21 3f bc
       0.018161934 -0.0060192 0.062058736 -0.011665614
0000a0 65 79 c7 bc 22 49 a0 39 08 0c 82 3c fb 0d 05 bd
       -0.024349878 0.00030572066 0.015874878 -0.032484036
0000b0 2f 1d 3c 3d 34 4b 4d 3c fa 1c 61 3d 82 6e 96 bb
       0.04592627 0.012530137 0.054959275 -0.0045908103
0000c0 80 65 d3 3c 28 0d 4d 3d 82 fa 47 bd 96 f4 5c 3d
       0.025805235 0.050061375 -0.048822887 0.053944193
0000d0 ba 46 a0 ba 89 93 fa 3c 33 27 11 3c 33 13 f6 bc
       -0.0012228109 0.030587928 0.0088594435 -0.030038452
0000e0 5b 03 d0 bb 59 c7 2d bd 24 ad 1e 3d 0b ba 3b 3b
       -0.0063480563 -0.04242644 0.03873934 0.0028644826
0000f0 55 f4 d2 3a ce 33 fb bc 4c 48 96 3c e5 d2 58 3c
       0.0016094545 -0.03066435 0.01834502 0.013233875
000100 97 6f 22 bb c5 34 92 3c eb fa 96 3c a8 78 8e 3c
       -0.002478575 0.017847428 0.018430194 0.017391518
000110 c2 0e 30 bc b0 73 44 bd be 0b 4c bc e5 a6 87 3d
       -0.010745706 -0.04796189 -0.012453971 0.066236295
000120 84 b0 b4 bb b1 7d 2d bd bc 9a a3 bc d3 7d 93 3c
       -0.0055142064 -0.042356197 -0.019971244 0.018004334
000130 3b 4e 21 bc cf 1a 6a 3d a6 97 2c bd 14 06 1d 3b
       -0.009845312 0.057154473 -0.04213681 0.0023959922
000140 7e fe 83 3d 9a f8 53 bd 2e f7 a7 3a 7f 19 9a 3c
       0.06445025 -0.051750757 0.0012814754 0.018810986
000150 52 17 b8 3c ec 44 18 3d 00 3c f3 bb 5f 92 5e 3c
       0.022472057 0.037175104 -0.007422924 0.013584702
000160 63 7a 0a 3d 79 38 02 b9 d9 ee 3d 3d f2 40 39 bb
       0.033808123 -0.00012418804 0.04637036 -0.002826747
000170 93 f4 ba 3b 5c 82 87 3d 7b 85 2f 3d 96 47 26 bd
       0.005705425 0.06616661 0.042851906 -0.040595613
000180 5e e1 1f bd 61 5c 02 3d cf ae ea bc c1 4a 34 bd
       -0.039033286 0.03182638 -0.028647808 -0.044016603
000190 85 17 6e 3d e5 83 b8 3c 62 f9 68 3d 71 38 89 bc
       0.0581279 0.02252383 0.056878455 -0.016750546
0001a0 d1 25 76 3c 9b a7 93 3c 17 fc 1c 3d dc 51 db 3c
       0.015023665 0.018024256 0.03832635 0.026772432
0001b0 39 5d 45 3d 55 4c d3 bc 92 03 55 3d 4a 14 05 bd
       0.048184607 -0.025793234 0.052005358 -0.032490052
0001c0 79 b8 83 bd 78 da bd 3c 4f df 26 3b b6 46 82 bd
       -0.0643167 0.023175463 0.0025462692 -0.06361143
0001d0 6e 28 d9 bc 79 fc 3d bd b2 42 4a 3d 27 a1 45 bc
       -0.026508536 -0.046383355 0.04938001 -0.0120623475

fc_1.weight f4 [84, 120]
000000 f7 30 1f 3b be 50 96 3d 3c 17 aa 3d b0 a5 c1 3c
       0.002429066 0.07339619 0.08305213 0.023638576
000010 98 62 30 bd 74 65 26 bc b5 36 43 bd f5 19 b3 3d
       -0.043062776 -0.010156024 -0.047659595 0.08745185
000020 cc ad d6 bc 94 d4 45 bc 39 b2 83 bd 5b 53 bd 3d
       -0.02620592 -0.012074608 -0.06430478 0.092444144
000030 26 37 cb 3c 10 40 90 bd a6 a4 b5 bc 1e 12 a6 3d
       0.02480657 -0.07043469 -0.022173237 0.08108924
000040 dc 1c 9b bc 4f b0 fb 3d 19 19 2f bd 76 42 88 bd
       -0.01893466 0.122894876 -0.042748544 -0.066533014
000050 75 73 c9 3d b6 43 c6 bd e1 8a 77 3d a3 1c f3 bc
       0.09836475 -0.096808836 0.06043518 -0.029676741
000060 ea 62 0a bd e4 24 76 bd b1 85 95 bd 4d 40 e0 3c
       -0.033785738 -0.060093775 -0.0730089 0.027374411
000070 77 d2 af bd b1 e6 38 3d 0f 19 3e bd 00 45 e4 bc
       -0.08585065 0.04514188 -0.046410616 -0.027864933
000080 e8 8a 97 3b fc 22 2c bd f2 f4 2e bd de be b1 3d
       0.004624713 -0.04202555 -0.042714067 0.08678983
000090 40 0b 11 3d d4 e5 c8 3d 7b 97 8e 3d 04 c3 a0 bc
       0.03541112 0.09809461 0.06962486 -0.01962424
0000a0 05 d7 bd 3d 07 aa d1 bb 5e 52 6b 3b b6 f5 0a 3d
       0.09269527 -0.0063984427 0.003590725 0.033925734
0000b0 5f be 1a bd e3 96 1a bc be c7 a6 bd a3 a7 a2 bc
       -0.03777921 -0.009435388 -0.081435665 -0.019855326
0000c0 84 2d 3d 3d ee 85 4a bd 98 04 23 bd f7 49 57 3d
       0.046185985 -0.04944413 -0.039799303 0.052560773
0000d0 f1 62 5b 3d f3 0a 87 bd 73 1c be 3c 2e a9 37 bd
       0.053561155 -0.06593885 0.023206925 -0.044839077
0000e0 1b 29 9a bd 4d 11 c1 3c 37 ee f4 3d 08 b6 1f bd
       -0.075273715 0.02356782 0.119594984 -0.038991958
0000f0 49 db 99 bd 8c bb 1c 3b b7 e6 99 bb ad c6 07 bc
       -0.075125284 0.0023915498 -0.004696693 -0.008287114
000100 59 95 23 3d 04 1b c7 bd 07 09 47 bd 4f 71 71 bc
       0.03993735 -0.0972195 -0.048592594 -0.0147364875
000110 ab 43 1f bd 53 9d 71 3c 99 dc af bd c8 2b ba bd
       -0.038882893 0.014746982 -0.085869975 -0.09090382
000120 1f 34 85 bd c9 c1 8a 3d 92 d7 e4 3d 44 8b 43 3d
       -0.06504082 0.06775243 0.11173929 0.047740236
000130 0f 74 52 3d a3 5b 7b 3d 79 c7 30 3d 23 54 8a 3c
       0.051380213 0.06136669 0.043158982 0.016885823
000140 ce 30 7f 3d 64 c9 ac 3b 29 43 77 3d 9a 7e 52 bc
       0.062302403 0.005273031 0.060366783 -0.012847567
000150 05 60 d8 bd d8 e2 5d bd d7 ce 0a 3d 9c 4e bf bd
       -0.10565189 -0.054171413 0.033888664 -0.093411654
000160 a3 65 71 3d 05 16 86 bd 02 34 94 3d 78 8e c5 3d
       0.05893482 -0.06547169 0.07236482 0.096463144
000170 09 de 59 bd 40 c4 fb 3d b0 9b 09 bd db 18 ca bd
       -0.053190265 0.12293291 -0.03359574 -0.09868022
000180 94 86 97 3d 24 a3 ce bc e5 43 e2 bc 51 34 bb 3d
       0.073987156 -0.025224276 -0.027620265 0.09140838
000190 00 6f 23 bd f7 ce ba 3d 75 74 94 3d 5b 04 8d bd
       -0.03990078 0.09121507 0.07248775 -0.06885596
0001a0 6f 54 9b 3d b1 a3 2a 3d f6 a3 89 3d 76 86 d2 3b
       0.07584464 0.041660015 0.06720726 0.0064247204
0001b0 5c 62 6a bd 35 01 c9 3c 19 75 d6 bd d7 b2 af bd
       -0.05722271 0.024536708 -0.10471553 -0.08579033
0001c0 d9 a0 cd 3d e1 af 02 bd d3 09 77 3d 69 68 04 3e
       0.10040445 -0.031906012 0.060312103 0.12930454
0001d0 b0 95 5b 3d 73 6e 93 3d 38 04 c7 3c d5 a1 0f 3d
       0.05360955 0.07198801 0.024294004 0.035066444
0001e0 f3 51 c5 3c 7d 3e c3 bc b5 d2 c7 3c f0 b6 b7 3d
       0.024086928 -0.023833508 0.024392465 0.089704394
0001f0 6e a7 45 bd 27 32 46 bd 92 27 6f bd fc 63 cb bd
       -0.048255377 -0.048387673 -0.058387347 -0.0993118
000200 7e 6a 58 3d 16 5f 94 bd 5f 9e 9f 3b f4 6e 9d 3d
       0.052835934 -0.07244699 0.004871174 0.07687178
000210 80 82 80 3d 1a 68 d0 bc 69 e4 99 3d 6f 5b 0b 3d
       0.06274891 -0.025440264 0.07514269 0.034022745
000220 33 fb 4f 3d 41 44 34 3c fb 50 52 3c d5 49 02 3d
       0.05077667 0.011002601 0.01283669 0.031808693
000230 63 e5 10 3d 86 7e 33 bd ba 21 00 3c 86 ab b2 bc
       0.03537501 -0.043821834 0.007820541 -0.021810304
000240 82 c2 9b 3d 26 0d 19 bd 6b e6 29 3d 43 b0 07 bd
       0.07605459 -0.037366055 0.04147951 -0.03312708
000250 d3 e8 ca 3a 6f 48 ab bd 8a fc ce bd 41 5e c2 3c
       0.0015480764 -0.08363425 -0.10106762 0.023726584
000260 be 3c 90 3d 70 e4 93 bc 5d bf 7f bd e6 11 1c 3d
       0.07042836 -0.018053263 -0.062438358 0.038103007
000270 c1 14 e7 bd fd 30 a5 bd ab e3 ed bd 34 f0 57 3d
       -0.11283255 -0.080659844 -0.1161569 0.05271931
000280 01 1b 8f 3d e1 7c d3 bd 93 bf c7 bd 56 9a b8 bc
       0.069875725 -0.10326553 -0.09753337 -0.02253453
000290 e6 ba 42 3d e3 2b 06 bc e9 7d 1c 3d 41 c7 38 bd
       0.04754152 -0.008189174 0.038206015 -0.0451119
0002a0 e3 f5 2c bd a5 37 64 3d 9c 78 f9 3c cf 50 38 bd
       -0.042226683 0.05571713 0.030453019 -0.04499894
0002b0 c0 bd 17 ba 97 69 a1 3d b0 eb fb bd 28 94 75 bd
       -0.0005788468 0.07881468 -0.12300813 -0.059955746
0002c0 c4 c4 ee 3d 2b 56 29 bc 90 6d bd bd 39 c0 e8 bd
       0.11658624 -0.010335485 -0.09249413 -0.113647886
0002d0 56 18 59 bd ef b3 b0 3d ad bf 82 3d e0 7b eb 3c
       -0.053001724 0.086280696 0.063842155 0.028745592
0002e0 32 4c f6 bc 55 8b 67 bc 6e 73 a4 3d 53 d6 57 3d
       -0.03006563 -0.01413234 0.08029829 0.05269463
0002f0 54 be f0 bb aa 40 a0 3c 54 ed 7d 3d c2 c9 90 3d
       -0.0073469076 0.019562084 0.06199391 0.07069732
000300 72 d1 51 bd 02 58 4e 3d 4f c7 74 bd 96 f5 4f bd
       -0.051225133 0.0503769 -0.059760388 -0.05077132
000310 a7 5b c6 bd 66 b8 9d bd f3 d9 4a bd c7 b8 ef bc
       -0.0968545 -0.07701187 -0.04952426 -0.029262913
000320 aa da b6 3d 94 12 30 bd dc 59 a5 3c 7d 92 3c 3d
       0.089284256 -0.042986467 0.02018445 0.04603814
000330 53 d1 85 3d 5d 72 a9 3a 10 47 01 bd 2b 8e bd bd
       0.06534066 0.001292776 -0.03156191 -0.09255632
000340 00 bb 30 bd 1b f8 b8 3c 02 fc e1 3b 33 2d 69 3c
       -0.043147087 0.022579243 0.0068964968 0.014231968
000350 b9 2f ca 3d cf d1 25 bd 39 b8 9e 3d 10 c9 50 bd
       0.098723836 -0.040483292 0.077499814 -0.050973
000360 c7 3d f3 bc 8b 04 54 3d 5f e5 dc bc d0 dd d0 bd
       -0.029692544 0.051762145 -0.026964841 -0.101985574
000370 82 c6 ad bd 7d f1 84 bd fa a6 ec bd 3d 63 80 3d
       -0.08485128 -0.06491373 -0.11555286 0.06268928
000380 21 12 d1 3d 0c 69 20 3c b4 8f 80 3d 0e 0b 90 3d
       0.10208536 0.00979067 0.06277409 0.070333585
000390 97 92 5c bc 66 79 35 3d 70 86 d2 bd 2d 83 47 3c
       -0.013462684 0.044305228 -0.10279548 0.012177271
0003a0 9f 1d e1 bd f4 86 91 bd b3 47 ce 3d 7b ce 64 3d
       -0.10991978 -0.071058184 0.10072269 0.055860978
0003b0 19 8b 4a bd 2b cc b6 bd 6b 66 56 3c 5a 66 85 bd
       -0.04944906 -0.08925661 0.013085942 -0.06513663
0003c0 83 d6 9a 3d 82 e2 a4 bc ba 70 b2 bd ae 97 15 3d
       0.07560446 -0.020127539 -0.08712907 0.036521606
0003d0 f7 86 6b 3d 05 b2 c0 3d 3c 7b 93 3c ff 4e 8c bd
       0.05750176 0.094089545 0.018003099 -0.06851005
0003e0 cf f8 3a 3d 91 fd 77 3d d1 69 b9 bd fc 6c 99 3c
       0.04564744 0.060544554 -0.09053386 0.018728726
0003f0 ab 6c 1a 3c b0 8c 64 bd 8b 76 c1 bd c6 f3 a3 bd
       0.0094253225 -0.055798233 -0.094464384 -0.080054805

fc_1.bias f4 [84]
000000 02 8f 62 bd b0 14 c0 3d d7 73 0c 3d 58 5e e8 bc
       -0.055312164 0.09378946 0.03429016 -0.0283653
000010 23 0f 78 3d 8c 61 b9 bc 8c 05 38 bd 36 b0 64 3d
       0.06056131 -0.022629522 -0.044927165 0.05583211
000020 8e cc 36 3d 51 81 9d bc 66 ca a8 bb 58 ae ae bd
       0.044628672 -0.019226702 -0.005151081 -0.08529347
000030 3d 1c 81 3c 17 ce ab 3d 76 dc e4 3b 49 2e 7b 3d
       0.015760535 0.08388918 0.006984289 0.061323438
000040 51 e0 09 bd 70 0a 8c bd 30 79 72 3d cf 23 92 bd
       -0.03366119 -0.06837928 0.059197605 -0.07135736
000050 de 3e 9b bc 5a 09 9a 3c c3 ad b0 bd 72 fd f9 3c
       -0.018950876 0.018803287 -0.086268924 0.03051636
000060 e4 ca 57 3d b5 d0 9b bd 3c 10 aa bd dc fd 38 3d
       0.052683726 -0.07608167 -0.08303878 0.045163974
000070 4d fa b3 bc 48 c4 1b 3d 18 a6 32 3d 15 7c bb 3c
       -0.021969939 0.038028985 0.04361543 0.022886315
000080 b7 09 6b 3c 74 02 21 bd c5 54 23 bd 27 6a 5a 3c
       0.014345578 -0.03930898 -0.039875764 0.013330973
000090 23 ed af bd 53 f0 60 bd 19 67 78 3d d8 8d c2 bd
       -0.08590152 -0.05491669 0.060645197 -0.09499711
0000a0 b9 7e 52 3d 8b be 34 bd 57 38 57 bd 74 d6 2a bd
       0.051390383 -0.04412703 -0.052543964 -0.041708425
0000b0 1c ea 97 3d 9a c7 63 bd 48 e7 e4 bb 72 e5 54 bd
       0.074177 -0.055610277 -0.0069855787 -0.05197663
0000c0 b6 2f 88 bd b9 57 48 bd 65 70 0f 3d e5 a0 42 3d
       -0.06649725 -0.048911784 0.035019297 0.047516722
0000d0 fe 38 85 3d 2f 8c 50 bd 5d 07 83 bd 2e ef 9f ba
       0.06505011 -0.05091494 -0.06397889 -0.0012202018
0000e0 f2 1e 06 bd d3 d3 29 3a 9e d2 d3 3c 5d 65 3a bd
       -0.032744355 0.00064784026 0.025857266 -0.045506824
0000f0 8d bc d2 3b 47 1d d0 3d cc 58 9c bc f1 eb 69 bd
       0.0064311684 0.10161834 -0.01908531 -0.057109777
000100 ea ea 82 3c 13 c5 b5 3d 63 c7 74 bd c4 b5 9c bc
       0.015981156 0.088754795 -0.059760462 -0.019129641
000110 f6 df 30 b9 7b 07 89 bd e5 f1 f6 3b 99 3f 7e 3d
       -0.000168681 -0.0669088 0.0075361603 0.06207237
000120 60 a0 4a 3d 75 21 b2 bc d0 88 56 3d 29 d2 88 bd
       0.04946935 -0.02174447 0.05237657 -0.0668071
000130 77 d4 29 3d 92 0e 2e 3d 53 42 b4 bc 59 ac aa 3d
       0.041462388 0.042494364 -0.022004282 0.08333654
000140 5e 1e 19 3d fd 8c 48 bd 56 09 01 3d 94 07 c4 3c
       0.037382476 -0.048962582 0.031503044 0.023929395

fc_2.weight f4 [10, 84]
000000 c0 95 32 be 28 35 84 3d 1b ad 1c 3e b3 ff 9d be
       -0.17439938 0.06455451 0.1530041 -0.30859146
000010 dd 05 0b be d7 a3 e7 bd 48 17 09 3e 33 9e 99 3d
       -0.13576455 -0.11310547 0.13387787 0.07500877
000020 aa cb af 3d 9c 16 12 be 2e 0b f3 3c 4b 30 bd bd
       0.08583768 -0.14266437 0.029668417 -0.09237727
000030 fe 7f 18 be c7 c4 cb 3c b0 82 6c 3d fd 77 8e be
       -0.14892575 0.024874104 0.05774182 -0.2782592
000040 f5 07 4b bd 81 1b 88 be 7f 39 16 be ab fc 8e bd
       -0.049568135 -0.26583484 -0.1467037 -0.06981786
000050 11 75 87 3d e9 1c ea 3d 08 0c 56 bd 27 39 b3 3d
       0.066141255 0.114312954 -0.052257568 0.08751135
000060 f2 96 00 3d a5 b7 6f 3d 83 82 ca 3d bf 7f 25 3e
       0.031393953 0.058524746 0.098881744 0.16162013
000070 8c c0 6c 3d 91 ac 0c be 15 bb 12 be 88 28 45 bd
       0.057800815 -0.13737704 -0.14329179 -0.048134357
000080 89 de 31 3e 4a de a9 bc ed f4 ef bb b7 1e 0c bb
       0.17370047 -0.020735878 -0.0073228986 -0.0021380612
000090 f6 2a af 3d 43 43 31 bc 84 6c 2f 3e ef d6 93 bd
       0.08553116 -0.010819259 0.17131239 -0.0721873
0000a0 1d 62 58 bc c9 c3 89 bd 9e e1 10 be 7d 5a b4 bd
       -0.013206986 -0.06726796 -0.14148566 -0.08806322
0000b0 10 ff 3d be c3 aa 9a bd b0 51 9c bc 1a e4 99 3d
       -0.1855433 -0.075521015 -0.01908192 0.0751421
0000c0 7d e9 b3 bd 23 f0 1f be 93 92 6d bb 66 3e 64 3e
       -0.08784769 -0.15618949 -0.0036250695 0.22289428
0000d0 1c 94 90 3d 8c 70 1d be e5 15 06 3d a2 74 ae bd
       0.070594996 -0.15374964 0.032735724 -0.0851834
0000e0 7b ab 15 be 7e 19 70 bd 24 97 c5 bd 68 92 e4 bd
       -0.14616196 -0.05861806 -0.096479684 -0.11160737
0000f0 e3 ec 6e bd 62 94 5a bd d0 55 42 bd 6d 3c ee 3d
       -0.05833138 -0.053364165 -0.04744512 0.11632619
000100 f2 ed d1 bc 25 0c 2c 3e 6a c3 34 3e 52 7f 40 3e
       -0.025626156 0.16801508 0.1765267 0.18798569
000110 3d 48 39 3d 2f 09 9b 3d 5a 29 15 be 14 05 58 be
       0.045234907 0.07570111 -0.14566556 -0.21095687
000120 3c 27 3f 3e 70 27 ae bd 8c 84 a4 3d 95 d6 a3 3e
       0.1866731 -0.08503616 0.08033094 0.3199965
000130 d5 39 fb 3d 52 20 a3 bd 24 7f 6c 3c 61 ab e1 3d
       0.1226689 -0.07965149 0.01443461 0.11019016
000140 5d e6 4c bd 47 61 0d be df 02 5b 3d 49 26 66 be
       -0.05002438 -0.1380664 0.053469535 -0.22475542
000150 72 cd 55 3d 1e f4 f3 3c f5 60 01 3e f7 39 79 3e
       0.05219788 0.02977949 0.12634642 0.24338518
000160 2a fb 39 3e a7 93 06 be ec 52 36 be 45 bf a9 3c
       0.18162218 -0.13142262 -0.1780507 0.020721087
000170 b6 2a 2c be 45 49 0c be 7b 6e 65 bd 40 2f 6a 3b
       -0.16813168 -0.13699825 -0.056013566 0.003573373
000180 f8 cb 56 bd e9 ac fb 3d 67 bb 99 3d 56 f7 49 be
       -0.052440614 0.12288839 0.07506447 -0.19723257
000190 5a c9 34 3e 08 22 db bd 67 90 ea 3a 87 fe 2f 3c
       0.17654935 -0.1069985 0.0017895818 0.010741836
0001a0 5b 4d a3 bd 68 4f 84 3d ca 31 dd 3d 23 b3 8c 3e
       -0.07973739 0.06460458 0.10800512 0.2748042
0001b0 51 09 14 3d b9 c0 8b 3c 2a a8 1a 3d 79 fc 96 be
       0.036141697 0.01705967 0.03775803 -0.29489496
0001c0 29 2b c2 3a 1b 86 97 3d 16 79 11 3d f2 82 a4 bd
       0.0014813888 0.073986255 0.035515867 -0.08032788
0001d0 98 30 00 bd 6a 84 9e 3c bd a8 8c 3e 92 ec 7e 3d
       -0.031296343 0.01935025 0.27472487 0.06223733
0001e0 94 18 66 be e8 af b9 3d 58 9e 9e be d3 21 99 bd
       -0.22470313 0.090667546 -0.30980182 -0.074771546
0001f0 34 d8 ed 3d 9d 8c cd bd ac e7 0d be c8 e7 3c bd
       0.11613503 -0.100365855 -0.13857907 -0.04611948
000200 34 dc 7f be 22 22 36 3d 33 78 fb bc 26 d9 f2 bc
       -0.24986345 0.044466145 -0.030696964 -0.02964456
000210 56 5f a9 bd 93 74 84 3d 5b 84 6b be b8 e8 92 3e
       -0.08270137 0.06467547 -0.22999708 0.28693175
000220 fe dc cf bd a4 ed ac 3d 0d 17 cd 3d 9b 73 d0 3d
       -0.10149573 0.08443764 0.10014162 0.101783
000230 22 81 d0 bd d2 34 3f bd 9d a1 c2 bc 37 bd 3b 3e
       -0.1018088 -0.046681233 -0.023758704 0.18333898
000240 0f 66 41 be b0 65 87 3e 39 34 70 be 9a 16 39 bd
       -0.18886589 0.2644477 -0.23457421 -0.04518757
000250 32 f3 10 bd b6 89 6c be 15 dd 27 bd 14 06 93 3d
       -0.03538818 -0.23099408 -0.040982325 0.07178894
000260 ce 9a c0 3d f4 28 2d 3e 87 73 00 3e cb df e7 3d
       0.09404527 0.16910154 0.1254407 0.11321982
000270 f4 bb 3f bd 21 24 5b 3d 8a c9 31 be 15 f0 d2 3d
       -0.046810105 0.053501252 -0.17362037 0.10299698
000280 d4 9d 99 bd 30 2a aa 3d 2f 73 1c bd af 16 95 3d
       -0.075008065 0.08308828 -0.038195785 0.07279717
000290 52 ea 8c bd 96 62 28 3e 11 23 55 be c2 2c 10 bd
       -0.068806306 0.16443858 -0.20814158 -0.035198934
0002a0 4c f8 70 be 0c 4a 14 3e 1b f2 84 bd 6e 40 7e bd
       -0.23532218 0.14481372 -0.064914905 -0.062073164
0002b0 2f 49 c8 3d 9e 6d 73 3d 69 8c 35 be de c9 13 3d
       0.09779584 0.05943071 -0.17729343 0.036081187
0002c0 87 a7 35 be e7 47 46 3e 05 21 3c be 15 68 fb bc
       -0.17739688 0.19363366 -0.18371971 -0.030689279
0002d0 21 8f 16 be 21 8e 7f bd b3 4a e5 bd d8 61 31 3d
       -0.14703037 -0.062391404 -0.11195888 0.0433062
0002e0 f0 1c 00 3e 73 66 cb 3c e6 02 cf 3c 75 e7 36 bd
       0.12511039 0.024829125 0.025269937 -0.04465433
0002f0 94 c1 85 3d 3e 57 ee 3c 92 fb 43 bd 97 b2 33 be
       0.06531063 0.029094335 -0.047847338 -0.17548595
000300 85 71 38 3d 15 94 c3 bb 29 9d 8b bd c4 d9 c9 bd
       0.045030136 -0.0059685805 -0.06817085 -0.098559886
000310 7a 7c ad bd a0 36 93 bd 2d 54 ff 3d e9 25 dd 3d
       -0.08471008 -0.07188153 0.12467227 0.107982464
000320 91 56 09 3d c7 d1 a9 3d 2b 70 ad 3d de 1f 55 bc
       0.03352982 0.08291965 0.0846866 -0.013008086
000330 56 a8 7a 3d 24 07 e4 3d da b5 28 3e 40 f8 9f 3d
       0.061195694 0.111341745 0.16475621 0.07811022
000340 da 17 e4 bd 78 ae 92 3e f2 a9 44 3e ac 44 5f bd
       -0.11137362 0.28648734 0.19205454 -0.05450885
000350 01 26 bf bb 7c ba e0 bd 8e e3 d2 bc a0 1f 88 3e
       -0.005833388 -0.10973069 -0.025743272 0.26586628
000360 e4 14 91 bd 2c 3d d5 3d fa 0a c9 3d da cf c8 bd
       -0.07084063 0.10412058 0.09816547 -0.098052695
000370 17 ef 0f be 91 5d 8b 3d 8e 41 69 be 91 4d 85 bd
       -0.1405605 0.06804956 -0.22778913 -0.06508935
000380 3b f6 9f 3d 40 d5 91 3c 21 16 ae 3d 86 1b 4b bb
       0.078106366 0.01780188 0.085003145 -0.0030991747
000390 50 e0 9e bd 27 a5 a1 3e 34 5d 82 3b 71 e8 66 bd
       -0.07757628 0.31571314 0.003978396 -0.056374017
0003a0 2b c8 81 bd 52 54 00 3e 24 a2 43 3c 9d 34 61 3c
       -0.06337007 0.12532166 0.011940513 0.013745454
0003b0 07 d3 19 3d ba 9e 57 3d c6 b5 84 3d 05 18 1f bd
       0.037554767 0.052641608 0.06479983 -0.038841266
0003c0 c7 71 d7 bd fd 0d 49 be 77 25 e6 3d d4 10 83 3c
       -0.10519748 -0.19634242 0.112376146 0.015999235
0003d0 95 8f 4a bd 9d 85 3b be 3d cf 0b be 98 b6 61 3d
       -0.049453337 -0.18312688 -0.13653274 0.055105776
0003e0 a8 1c 31 3e d0 f4 73 be 4e 47 45 bd 0f da c1 3d
       0.17296088 -0.23823857 -0.048163705 0.094654195
0003f0 e6 11 93 3d c9 1b 33 3c e8 ac 10 3e 5b 79 c4 3e
       0.07181148 0.0109319175 0.14128458 0.38373837

fc_2.bias f4 [10]
000000 b1 b2 d6 3d e4 d6 22 bd c6 ee 3d bd de 6c dd bd
       0.104833014 -0.039755717 -0.04637029 -0.108117804
000010 8e 18 09 3e 20 a1 17 bb 41 ab 8d 3d 26 56 06 3e
       0.13388273 -0.002313681 0.0691743 0.131188
000020 cc dd 87 3d f1 2f c4 ba
       0.06634101 -0.0014967901

momentum_buffer f4 [6, 1, 5, 5]
000000 98 6c 96 3c ac ae 19 3c c1 c0 0b 3c a0 f8 48 3c
       0.018362328 0.009380024 0.008529843 0.012266308
000010 d2 3f 0a 3c 1c 53 7c 3c 49 92 5d 3c 63 5b 8a 3c
       0.0084380675 0.015400674 0.013523647 0.01688928
000020 9b 5c 4e 3c 50 16 64 3c 88 c0 a5 3c 72 8e b4 3c
       0.012595321 0.013921335 0.020233408 0.02204058
000030 e1 71 aa 3c f1 d1 9b 3c 93 a2 ac 3c e5 a9 ac 3c
       0.020806255 0.019021006 0.021073615 0.021077106
000040 55 88 ec 3c 46 73 ba 3c f2 40 b4 3c bc 3d af 3c
       0.028873602 0.022760045 0.022003625 0.021391742
000050 e4 be 51 3c 81 4a aa 3c db ee ac 3c 57 e0 b5 3c
       0.0128018595 0.02078748 0.021109989 0.0222017
000060 aa 3a 94 3c 97 41 b3 3b a6 de 6f 3c 6e 08 da 3c
       0.01809438 0.0054704654 0.014640486 0.026615348
000070 5d d5 15 3d 07 37 e3 3c 2c d7 87 3b b3 27 95 3c
       0.036580432 0.0277362 0.0041455235 0.018207407
000080 1f 17 fc 3c d6 95 ee 3c 9a ff 7f 3c e2 39 9d 3b
       0.030772744 0.029124182 0.015624905 0.00479816
000090 c3 76 08 3d f7 cb 1c 3d c3 f1 dd 3c 15 49 90 3c
       0.033316385 0.038280454 0.02709282 0.017612973
0000a0 9f b8 70 3c 5b eb ea 3c f9 15 07 3d ff 57 e4 3c
       0.014692455 0.02867668 0.03297994 0.027873991
0000b0 bc 92 c2 3c e8 1f 85 3c 0a 72 b8 3c ef c0 e7 3c
       0.023751609 0.016250566 0.022515316 0.02829024
0000c0 c9 8e d4 3c 77 00 e3 3c 7e fb 75 3b 8d 8d fb 3a
       0.025946992 0.027710183 0.0037533934 0.0019191966
0000d0 a8 fc b3 39 f7 24 16 bb be 7f 9e bb 80 11 14 3b
       0.00034329784 -0.0022910216 -0.0048370054 0.0022593439
0000e0 a1 22 3e 3a 0e 28 56 ba b3 44 0d bb ff 95 8e bb
       0.0007253085 -0.0008169421 -0.002155584 -0.004351377
0000f0 ad 01 e6 39 16 c3 94 ba 7e 23 f2 ba 80 31 3a bb
       0.00043870267 -0.0011349644 -0.0018473712 -0.0028410852
000100 ed 34 68 bb b6 f0 b3 ba 72 61 e8 ba 10 96 43 bb
       -0.0035431937 -0.0013728354 -0.0017729236 -0.0029844083
000110 12 06 89 bb 0c b5 12 bb 26 72 c9 ba 2a a2 66 bb
       -0.004181632 -0.0022385744 -0.0015369102 -0.0035191872
000120 3c 46 a3 bb de 29 d4 bb 33 c5 af bb 7f c3 47 bc
       -0.004982738 -0.0064747175 -0.005364084 -0.012192606
000130 42 bb 9c bc 6f fc b5 bc 8a 79 95 bc 1f bf 87 bc
       -0.01913226 -0.022215096 -0.01824643 -0.016570626
000140 32 12 4d bc 8e db b4 bc ee cf bb bc f2 69 a3 bc
       -0.012516545 -0.022077348 -0.022926297 -0.01994798
000150 94 57 7f bb 89 cc 6c bc 92 72 f6 bc a0 86 8d bc
       -0.0038962113 -0.014453062 -0.030083928 -0.017276108
000160 c4 07 95 bb d5 a5 37 3c 0e 05 8d bc aa 14 d8 bc
       -0.004548045 0.011208971 -0.017214324 -0.02637704
000170 82 28 12 bc 4e 6c ff 3b 70 5d bd 3c 93 ec b1 bc
       -0.008920791 0.0077948933 0.023115844 -0.021719253
000180 22 f6 8c bc 40 0b d6 39 30 ce 26 3c 5e ec dd 3c
       -0.017207209 0.00040825643 0.010180995 0.027090248
000190 6c 1b 5c ba 7a 59 ee bb 31 1d 21 bc ca 2d 04 bc
       -0.000839642 -0.00727385 -0.00983362 -0.008067558
0001a0 18 d3 6d ba 00 ef 83 bb fd 96 13 bc 9e 4b 40 bc
       -0.0009072288 -0.0040262938 -0.009008166 -0.011736779
0001b0 b6 09 0e bc 22 df 73 3b ce ac 55 bb b9 e1 0e bc
       -0.008669307 0.0037211855 -0.003260422 -0.008720809
0001c0 50 e3 82 bc 2c b2 42 bc bb 52 ed bb 39 11 61 bb
       -0.015977532 -0.0118833 -0.0072425283 -0.003434254
0001d0 b8 50 0d bc b0 96 39 bc 0f 9d 24 bc 44 02 66 bb
       -0.008625202 -0.011327431 -0.010047211 -0.0035096565
0001e0 3a 9e 10 bb ec 55 86 bb 20 0e 71 bb 96 7f 00 bc
       -0.0022066967 -0.004099598 -0.00367821 -0.007842919
0001f0 b4 f2 2f bb c0 12 94 bb 1a 54 b6 bb 12 40 20 bc
       -0.0026847543 -0.0045188367 -0.005564225 -0.009780901
000200 54 c7 61 bc 93 42 a9 bc b0 d0 38 3b 2c 40 2b bb
       -0.013780434 -0.020661628 0.002820056 -0.0026130779
000210 be a7 64 bc 73 b5 65 bc 60 f1 67 bc 66 f5 fc 3b
       -0.0139560085 -0.014020312 -0.014156669 0.0077196835
000220 98 7c 6a bb 5d ad 2e bc 52 57 57 bc a4 f1 6e bc
       -0.003577983 -0.01066145 -0.013143377 -0.014583979
000230 1c 5b 16 3c d0 87 3a 3b a9 64 be bb ac e7 03 bc
       0.009176996 0.0028462298 -0.0058103395 -0.00805084
000240 73 df d0 bb f2 26 bb 3b e8 17 f2 ba b8 c7 08 bc
       -0.0063742935 0.0057114298 -0.0018470259 -0.008348398
000250 cd 6b a2 bb 24 e9 5f bb
       -0.0049566985 -0.0034166062

momentum_buffer f4 [6]
000000 53 13 b6 3b c8 10 ad 3b a0 53 71 3b 18 ac bd bb
       0.005556503 0.0052815415 0.0036823526 -0.0057883374
000010 00 2c 9c b9 66 66 19 3b
       -0.0002978742 0.0023406981
