CARS_MNIST/models/MNIST_weights.pth (torch, 541769 bytes, 30 tensors)

conv1.weight f4 [6, 1, 5, 5]
000000 51 d7 a2 3c 6e 96 33 bd 67 d1 b8 bd 42 e6 97 be
       0.019878061 -0.043844633 -0.09024315 -0.2966786
000010 03 a5 a1 be d6 54 6c bd 0b fe 92 3d 8a c7 7b 3c
       -0.31571206 -0.057698093 0.07177361 0.015367398
000020 91 a5 5e 3e c4 34 3e be 42 60 69 bc 6a 62 bd 3d
       0.21742846 -0.18574816 -0.014244141 0.092472866
000030 82 fc c0 3e 53 a3 b7 3e f6 ff ba 3e b2 ba 5d 3e
       0.37692648 0.35866794 0.36523408 0.2165325
000040 1b c5 38 3e 46 24 89 bd 87 42 94 3e 2c 05 72 3e
       0.1804394 -0.06696372 0.28957006 0.23634785
000050 41 13 4f be 5b 6a 94 be d6 73 cd be a3 da cf be
       -0.20222189 -0.28987393 -0.40127438 -0.40596494
000060 ef 45 dd bd ed 0f 89 3e bc 69 72 3e f8 08 84 3d
       -0.108043544 0.26769963 0.23673147 0.06447023
000070 c5 b5 05 be 72 60 c2 be 4c 8e fc 3d 9e c9 2f 3e
       -0.13057621 -0.37964207 0.123318285 0.17166755
000080 6b d8 23 3d f3 b9 55 3d b5 bd bb be 7b 08 14 be
       0.040001314 0.052179288 -0.36668172 -0.1445636
000090 02 e5 1a 3e c8 cb a5 3e db 26 bc 3c 56 24 5e be
       0.15126422 0.32382035 0.022967746 -0.21693549
0000a0 80 17 d7 be c5 6b 67 bc b7 96 5d 3e 47 7f b8 3e
       -0.42010117 -0.014124815 0.21639524 0.36034605
0000b0 f2 dc 6a bd c0 b9 af be 11 1f 06 be 5a 80 1e 3e
       -0.057339616 -0.34321404 -0.13097788 0.1547865
0000c0 2c 49 1e 3b a8 ac e3 3d d2 40 ba 3d 96 c2 20 3e
       0.00241525 0.11116916 0.09094395 0.15699229
0000d0 e0 fa ff 3d 9e 69 75 3d 43 0f 89 3e a7 dd 9f 3e
       0.124990225 0.059915178 0.26769456 0.31223795
0000e0 ac 13 c7 3d f5 3e 88 3e 90 13 99 3e 80 75 58 3d
       0.09720549 0.26610532 0.29897738 0.05284643
0000f0 e2 44 50 3d eb a3 30 3e 20 c9 3c 3d e7 9e 6e 3e
       0.05084694 0.1725003 0.046090245 0.23302804
000100 17 cd b5 3e 10 c0 07 be 56 36 c5 be 55 4d b4 be
       0.35508034 -0.1325686 -0.38518018 -0.3521525
000110 cb 9e 8f be 0f 34 85 be 13 2e 85 be a9 28 dd be
       -0.28050837 -0.2601628 -0.26011714 -0.43195084
000120 ec b1 09 bf f9 7c 1c bf 56 fc 05 bf ef eb f0 3c
       -0.5378711 -0.61128193 -0.5233816 0.029409377
000130 fb 0d 1f be 4a b2 4a be 0e 9d ad bc 25 1b 2d be
       -0.15532677 -0.19794574 -0.021193054 -0.16904886
000140 10 23 46 be 08 a3 15 be 85 73 37 be 52 63 c2 bd
       -0.19349313 -0.14612973 -0.17915161 -0.094916
000150 85 67 c5 3d d0 6f cd 3c 99 53 cd bb 19 5e d2 bc
       0.096388854 0.02507773 -0.006266069 -0.025679635
000160 12 b2 4f bd d2 e6 2d 3e 69 98 2f be 39 5c 65 3d
       -0.05070693 0.16982582 -0.17147984 0.055996154
000170 09 61 6a 3d c9 7c 96 3e 2a 4b da 3e 95 98 4d bd
       0.057221446 0.2939208 0.4263547 -0.05019434
000180 0b d3 a0 3b 74 8a 95 3e 7e ef fd 3e 62 96 d1 3e
       0.004907971 0.29207194 0.4959678 0.40935045
000190 22 01 78 be f5 e1 de 3e 1c ed 05 3f 3f b1 8c 3e
       -0.24219182 0.43531767 0.52314925 0.27478978
0001a0 b0 16 16 be dd c0 8e bd 3b 5e d6 3e 8d 44 ec 3e
       -0.14657092 -0.069703795 0.41868767 0.4614605
0001b0 3c 92 92 be 05 7c ee bd 6f cd a9 3e fc ab d4 3e
       -0.28627193 -0.116447486 0.33164546 0.41537464
0001c0 b7 85 46 3d 89 64 22 be 60 a6 a1 be d1 f6 a6 3e
       0.048467364 -0.15858664 -0.31572247 0.3261018
0001d0 1b 22 ed 3d fc 58 9f 3b d0 ae 30 be 49 8f 77 be
       0.11578771 0.0048629027 -0.17254186 -0.24175753
0001e0 8a 63 c1 bd 68 b5 9b 3d 53 62 13 be fc 38 d6 bc
       -0.09442814 0.0760296 -0.14392976 -0.02615022
0001f0 8f 1e e1 3c 02 b1 91 3e 10 82 3b 3e 58 aa a2 be
       0.027480392 0.2845536 0.18311334 -0.31770587
000200 c4 22 bc bd d8 98 b3 be 98 d0 a0 3e 65 82 49 3e
       -0.091863185 -0.35077548 0.31409144 0.19678648
000210 63 fd cd bd 08 f9 aa be ac 98 14 be 33 df 8e 3e
       -0.10058095 -0.3339312 -0.14511365 0.27904662
000220 0c 91 7e 3e 4f 6f 1d bd 56 3f a5 bb 8a 31 63 be
       0.24860018 -0.03843623 -0.0050429506 -0.22186866
000230 65 1a df 3e 42 ba a7 3e fc a3 86 3e a7 bc b5 3e
       0.43574825 0.3275929 0.26296985 0.35495493
000240 a8 e2 96 3c 55 c9 4f 3e 50 29 b4 3e b0 73 68 3e
       0.018418625 0.20291646 0.3518777 0.22700381
000250 bb 08 cf 3e 41 cf 19 3e
       0.40436348 0.15020467

conv1.bias f4 [6]
000000 89 78 2f bc ae d3 df bd 6b 4a 6d 3e 6a 50 ea b6
       -0.01070989 -0.109290466 0.2317292 -6.983105e-06
000010 5a 59 65 37 1f 02 e2 bb
       1.3670267e-05 -0.0068972255

conv2.weight f4 [16, 6, 5, 5]
000000 f8 43 c0 bd 59 82 51 be ec d7 ed 3c 88 9b f5 3d
       -0.09387964 -0.2045988 0.029033624 0.11992556
000010 d3 2c 35 3e 49 34 92 3d ed f9 3e bd 8c 28 84 bc
       0.1769288 0.07138879 -0.046625067 -0.016132616
000020 1b ff 9a 3d f0 e0 47 3e fb 8a 09 bd ae 73 6f 3d
       0.07568189 0.195194 -0.033579808 0.05845993
000030 0c d3 29 3e d7 84 74 3e 9f c9 3a 3e ce 79 24 be
       0.16584414 0.238788 0.18240975 -0.1606209
000040 59 d4 e9 3b b4 28 ac 3d 3b 22 c4 bd a1 d9 03 be
       0.0071359095 0.08406201 -0.095768414 -0.12875988
000050 c6 9e 65 bd 73 a0 2f bd 77 1f ea bd 31 2e e7 38
       -0.05605962 -0.042877626 -0.11431783 0.00011023542
000060 9f 11 ee bd ed da 87 3d 64 9a 57 bd 81 bc aa bd
       -0.11624455 0.06633554 -0.052637473 -0.083367355
000070 10 25 c2 bb bf 99 83 bb 43 fa 65 3e 88 ed 08 3e
       -0.0059248284 -0.0040161307 0.22458749 0.13371861
000080 c6 9f ae bb 72 39 c1 bd 2b fa 1e be 84 73 bb bb
       -0.005329105 -0.09434785 -0.15525119 -0.0057205576
000090 a8 e6 01 bd 3b 2a 75 3d 1f e6 03 bd 3c 91 6d bd
       -0.03171411 0.059854727 -0.032201882 -0.057999834
0000a0 1f dc d1 bd 5a 13 00 be 1c 8f ed bc 02 8a 3f bc
       -0.10247063 -0.12507382 -0.028998904 -0.0116906185
0000b0 1e cb a9 bd 16 34 f4 bd b7 9f 2d be f1 b6 42 bb
       -0.08290695 -0.11923997 -0.16955458 -0.0029711092
0000c0 d1 c8 77 bd 92 80 b6 bd c4 19 6e be d0 78 55 be
       -0.060494248 -0.089112416 -0.23252016 -0.20846868
0000d0 45 7a 2f be ad 53 32 be 28 a0 f1 bd cb 14 cb 3d
       -0.17136486 -0.17414732 -0.117981255 0.09916075
0000e0 5e 84 28 3d 3e 60 ea 3c d0 15 04 bd 06 e7 35 3d
       0.04114186 0.028610345 -0.032247365 0.044409774
0000f0 9e a4 80 3d 8f 5e 25 3d e4 89 64 3d 8a ba e1 3d
       0.06281398 0.04037338 0.055795565 0.11021908
000100 66 bb 48 3e a3 87 9d bd dc b2 8f bd 0c bc 89 3d
       0.19602737 -0.07691886 -0.070165366 0.0672532
000110 70 a0 6d 3c 73 e8 a4 bd 8e fc 1b be a6 32 47 bd
       0.014503583 -0.08052149 -0.1523306 -0.048632286
000120 39 71 25 be f2 d4 f2 bd 6b e1 70 be d1 57 7d 3d
       -0.16156472 -0.11857022 -0.2352349 0.061851326
000130 00 03 29 3d 79 c0 00 bd 80 01 1a bd 6a e6 8f bd
       0.041262627 -0.031433556 -0.037599087 -0.0702637
000140 cd 57 5b bc e0 da c5 3d 4e ea 87 3d 0d 04 f4 bc
       -0.013387633 0.09660888 0.06636487 -0.029787088
000150 3d 68 7a 3c 67 15 b0 bd 8f 94 64 bd c5 aa 8e bd
       0.015283641 -0.08597832 -0.05580574 -0.069661655
000160 8e 46 66 bc cb d5 35 be f0 5c 50 3b 42 61 47 bd
       -0.0140549075 -0.17757337 0.0031793676 -0.048676737
000170 06 51 4f bd fc 3e 85 be 3b 2e 3a be 12 af 03 bd
       -0.05061438 -0.26024616 -0.18181698 -0.032149382
000180 6f 8b 4d 3d b7 6c 04 3d 10 fe 6d bd 21 00 36 be
       0.050181802 0.03233024 -0.05810362 -0.17773487
000190 be df 58 3c af d8 f5 bb fc 78 98 3d 8c ce 5f bd
       0.013236938 -0.0075026373 0.07444951 -0.054640338
0001a0 31 de 35 3d 27 16 ac 3d bd 7e d0 3d 48 1f 34 3d
       0.04440135 0.08402663 0.101804234 0.043975145
0001b0 1b 48 57 3d a1 63 2f 3d 37 73 38 be cb 5d ec 3c
       0.052559 0.042819623 -0.18012701 0.028853318
0001c0 50 6b 1d 3d e3 82 83 3c fd 18 d6 3b fd 18 52 be
       0.03843242 0.016053623 0.0065337406 -0.20517345
0001d0 97 5c 98 bd 84 3e be bb b7 e1 d2 3c f1 2f 0d 3d
       -0.07439535 -0.0058057923 0.025742395 0.03446955
0001e0 00 0e 68 bd c0 70 e7 bd b3 2a 0c be 3e e6 d7 bd
       -0.056653976 -0.11300802 -0.13688163 -0.10541962
0001f0 be e4 43 be df f2 0f 3e ce 36 5f 3d 2f b9 ff 3d
       -0.19130227 0.14057492 0.054495625 0.12486493
000200 67 f0 8d 3d 08 02 4f 3b e8 9c be bb 43 b1 c2 3d
       0.06930619 0.0031586904 -0.0058170445 0.09506466
000210 10 27 62 3e 08 bf 6f 3e df 67 ea 3d 2b a7 28 be
       0.22085214 0.23412716 0.11445593 -0.1647002
000220 4c bb 1f bd 07 95 d5 bc 94 71 85 3d 4b 0d bd bc
       -0.03899698 -0.026072038 0.06515804 -0.023077628
000230 f2 22 37 be 38 df 25 be fc 61 b5 bd 40 0b 87 bc
       -0.17884424 -0.16198432 -0.0885658 -0.016484857
000240 ca 10 62 bd 1a 0b 87 3c b1 f8 00 bd 61 f7 4b ba
       -0.055191793 0.016484786 -0.03148717 -0.0007780698
000250 6a da b9 bd 9d 9b 3f be 6e 70 47 be 07 9f 82 be
       -0.09074862 -0.18711706 -0.19476482 -0.25511953
000260 a8 cb 2b be 96 0e d9 bd dc 48 17 be ee 34 d8 bd
       -0.16776907 -0.10598485 -0.14773887 -0.105569705
000270 ee e7 46 be a3 5d d5 bd 8a 25 a8 bd ba 20 8c bd
       -0.19424412 -0.104182504 -0.08210285 -0.068421796
000280 d8 39 c2 bd 0d dc bd bd e7 f8 9e bd bd 50 26 be
       -0.09483689 -0.09270487 -0.07762318 -0.16241737
000290 59 65 e0 bd 19 9e 52 be 0f 7a b6 bd 57 05 23 be
       -0.109568305 -0.20568122 -0.089099996 -0.15920006
0002a0 89 65 72 3a f7 c0 c7 bc db 79 78 bd 81 fb 2e be
       0.00092466973 -0.024384005 -0.060663085 -0.17088129
0002b0 42 8b 54 be 35 1a 59 3c ce ad b0 3c f0 80 ad 3c
       -0.20756248 0.013250877 0.021567252 0.021179646
0002c0 02 50 ef 3b 09 1d b1 bd 67 03 9c 3d 15 d0 0f be
       0.007303239 -0.08648116 0.076178364 -0.14044221
0002d0 97 61 27 3e 10 ab 94 bd f8 35 bf 3b bf 63 94 3d
       0.16345821 -0.0725919 0.005835291 0.072455876
0002e0 2f 81 92 bd 8c d2 89 b9 45 d3 94 bd eb 4a 12 3a
       -0.07153546 -0.00026287546 -0.07266859 0.00055806217
0002f0 b5 90 ae 3c 17 b9 fa bd 7a 89 73 3d da 3c c0 3c
       0.021309236 -0.12242334 0.05945728 0.023466516
000300 0d 55 90 3d c7 96 da 3d 0c ba 24 3d 27 43 46 3d
       0.07047472 0.1067329 0.04021649 0.048403885
000310 87 07 dc bd 67 c2 07 bd 72 3a 9b 3a 1f ff 3d 3c
       -0.10743623 -0.03314438 0.001184298 0.01159647
000320 84 f6 e4 bc d5 8a 89 3c 31 2e 66 bd 2b 11 af bd
       -0.027949579 0.016789833 -0.056196395 -0.085481964
000330 ab 7f 48 3d 93 f8 03 3e fa 85 2c 3d c7 4f f0 bd
       0.04894988 0.12887792 0.042119958 -0.11733966
000340 0f 02 bb bd 9e 12 88 3c 75 14 22 3e f2 6f 3b bd
       -0.09131252 0.01661044 0.15828116 -0.045761056
000350 83 d5 9e bd 3a 6a 50 bd e7 70 1b 3d 81 e5 20 3d
       -0.07755568 -0.050882556 0.03794947 0.039281372
000360 f6 c0 9e bd fb 40 1e be 81 2d 15 be 25 e3 36 be
       -0.07751648 -0.15454476 -0.1456814 -0.17860086
000370 7f 7d df bd fc 86 e7 bd 7d 78 80 bd e4 31 03 be
       -0.10912608 -0.11305043 -0.06272981 -0.12812
000380 e2 d3 b8 bd 5b cc d6 bd 4f dd 49 be a0 5b cc bc
       -0.090247884 -0.104881965 -0.19713329 -0.024946034
000390 c9 cc 68 bd 68 08 73 3c 58 80 08 be 05 d8 d9 bc
       -0.056835923 0.014833547 -0.1333021 -0.026592264
0003a0 10 96 b5 3c 2b 96 3b bd 4a fe b7 3b f5 51 25 be
       0.022166282 -0.04579751 0.0056150304 -0.16144545
0003b0 a1 1a 8e bd a3 69 7a bc b0 f9 a0 3b 52 3a 28 3d
       -0.06938673 -0.015283975 0.0049125776 0.041071244
0003c0 59 c8 c7 bd 7b 2c d7 bd df 6c cb b8 f9 ad f0 3d
       -0.0975501 -0.10506531 -9.700073e-05 0.11751933
0003d0 bd 0d c8 bc 47 4f f8 bb 0e 86 41 bd a1 5c f8 3a
       -0.024420613 -0.00757781 -0.047246985 0.0018948504
0003e0 8e 97 0a 3e 45 f5 1e 3d 7b f9 70 3e a1 17 89 3d
       0.13534376 0.038808126 0.23532669 0.0669396
0003f0 66 d6 a4 bd 07 6b 9f 3c 4b ac a6 bd bd f5 27 3e
       -0.08048706 0.019460214 -0.08138331 0.16402335

conv2.bias f4 [16]
000000 ff a4 7d bd af 6d 4e 3e 69 9e 13 3e 60 22 0d bd
       -0.06192493 0.20159028 0.14415897 -0.03445661
000010 41 51 64 bd 9c b4 a6 bd 19 4f ea 3d 34 71 d7 bd
       -0.055741552 -0.08139917 0.11440868 -0.10519639
000020 f1 c2 20 bd f7 fa 71 3d 87 93 74 bc 99 e9 58 bd
       -0.03924841 0.05907723 -0.014927751 -0.05295715
000030 86 f3 55 bc 12 7f ae bd 28 4b 2e be 43 5b 7e 3d
       -0.013058549 -0.085203305 -0.17020857 0.062098753

conv3.weight f4 [120, 16, 4, 4]
000000 1f 6d d7 bc a8 b6 e1 bc 67 13 88 3d 47 d7 82 3d
       -0.02629715 -0.027552918 0.06644326 0.06388717
000010 17 38 2f 3d 45 1a 82 3c ca c6 27 bc 28 b1 f5 3d
       0.0427781 0.015881667 -0.010240266 0.119966805
000020 e1 e2 50 bc 1c 5b d5 bc f0 ca 06 bd e3 50 11 bd
       -0.012749405 -0.02604442 -0.03290838 -0.03547753
000030 a9 63 40 3d a1 74 94 3d d0 3c fb bc ad 5b 91 3c
       0.046970043 0.07248808 -0.030668646 0.01774391
000040 87 4f 80 3c 01 f0 4e 3e 3e e2 1b 3d 95 36 c9 bd
       0.015662922 0.20208742 0.03805756 -0.09824864
000050 9f 05 40 bd c5 aa 1f 3b 01 70 0e 3d 96 e1 b4 bd
       -0.04688036 0.0024363261 0.034774784 -0.088320896
000060 9f 97 e2 bc dd 8f 2d bc 53 22 90 bc 46 8e 9b bc
       -0.02766019 -0.010593382 -0.017594492 -0.01898874
000070 90 1a dc bc ce fb 6c bd 28 3d 42 3d 17 d9 75 bd
       -0.026868135 -0.057857327 0.047421604 -0.060021486
000080 1e bc 29 bd 6d ca b6 3d e1 9b 4d 3d b6 93 ac 3c
       -0.04143917 0.089253284 0.050197486 0.021066528
000090 01 b5 91 bd b4 85 13 bd 4b 15 b3 3d 06 2f 7e 3d
       -0.07114602 -0.03601618 0.08744296 0.062056564
0000a0 e1 c0 23 3d c5 fa fa bc 35 5d 8a bc 3f 6f 70 3d
       0.039978866 -0.030637154 -0.016890148 0.058699843
0000b0 1f 12 8c bb 0b 97 b6 bb 11 c3 0b 3d 1d 23 cc 3d
       -0.004274621 -0.005572205 0.034121577 0.09967635
0000c0 c6 95 da 3d 7b ea bd 3d cb c2 59 3c 5a 63 9f bc
       0.10673098 0.09273239 0.013291071 -0.019456554
0000d0 ec ee c0 3c 69 79 cc 3d 4d d2 e2 3c fb 8c 1b be
       0.023551427 0.09984095 0.02768817 -0.15190499
0000e0 95 90 10 3d d7 dc 24 3e dd ba a7 bc 8e c9 9c bd
       0.035294134 0.16099869 -0.020474846 -0.07655631
0000f0 3b 07 97 b7 11 f7 a9 3b 6f 83 cb bd 18 f9 fe bd
       -1.800397e-05 0.0051869233 -0.09937178 -0.124498546
000100 31 c3 78 3a b8 ef cd 3b 0d d7 5a bd ef a3 c5 bd
       0.0009489535 0.00628468 -0.053427745 -0.096504085
000110 80 c0 1b 3e 50 b6 b2 3d 15 15 c7 bd 7c 28 5e bd
       0.15210152 0.087261796 -0.09720818 -0.054237828
000120 28 fb e9 3c 1d ef 9a 3d 07 e1 09 3e 4c e1 6d 3d
       0.028562143 0.075651385 0.13464747 0.058076188
000130 0f 70 10 bd 8a 40 e1 bc 90 69 b7 bd 81 31 1c bd
       -0.035263117 -0.027496595 -0.08955681 -0.038133148
000140 67 6f c8 3d d7 4b c6 3d 01 5a 28 bc 74 ce ad 3b
       0.09786873 0.09682434 -0.010275365 0.005304152
000150 68 4b 1e bc 8b 2b 19 3d 5d 62 0c bd dd 52 04 be
       -0.009661533 0.03739504 -0.034273494 -0.12922235
000160 06 0e bb 3d 6c 72 5f 3d 20 e2 6e bd b3 0b 66 bd
       0.09133534 0.05455248 -0.05832112 -0.0561635
000170 c8 25 d9 3d 56 fe 1d bc e9 e9 d0 bd f8 2e 72 3d
       0.10602909 -0.009643158 -0.10200865 0.059126824
000180 fc 44 cb 3d 97 ab 01 3e 01 90 72 3d 2d 45 57 bc
       0.09925267 0.12663113 0.059219364 -0.013139051
000190 27 4e 9f 3d 40 b5 d9 3d 07 03 b2 3b 1b 24 c5 bd
       0.07778578 0.10630274 0.00543249 -0.09626027
0001a0 26 9a e6 3d 3f b9 20 3c a6 01 38 bd 94 16 94 bc
       0.1125987 0.009809791 -0.044923447 -0.018077172
0001b0 19 01 e9 bd c8 5b 4c bc b1 e8 97 bb 8e 4e 14 bd
       -0.113771625 -0.012473054 -0.0046358933 -0.036207728
0001c0 0a cd 85 bc 71 70 02 3c 7f 81 48 3d 33 f8 ee 3d
       -0.016333122 0.007961378 0.048951622 0.11668434
0001d0 30 ea eb bc 6b c9 cd 3c 36 7c ec 3d 1e 8d 04 3e
       -0.028798193 0.025120458 0.11547129 0.12944457
0001e0 b9 1c 6e 3d a8 1e 22 3c 37 f6 ae 3d 93 3f a9 3d
       0.05813286 0.009895004 0.085430555 0.08264079
0001f0 d9 8e 2b bd bb e7 a1 bd 56 2a 81 bd a2 e3 9b 3d
       -0.041884277 -0.07905527 -0.06306903 0.07611777
000200 35 ac c6 bd 8d 63 09 3d bf d5 a4 3d 42 4b ca 3d
       -0.09700815 0.033542205 0.08048581 0.098776355
000210 b3 b9 90 3c 9e 30 4c 3d cd d1 be bd ea 22 49 3d
       0.017666673 0.049851052 -0.0931736 0.049105562
000220 1d 51 5e bd ff fa 84 bd 35 67 df bd 43 3e 31 3d
       -0.054276574 -0.06493186 -0.10908357 0.043272268
000230 94 83 dd 3d 93 cd 33 3c 5b 74 9b bd 9c 3e 44 bd
       0.10816112 0.010974306 -0.075905524 -0.04791127
000240 19 7a 9e 3d 87 f4 7c 3d 21 04 f9 3c c4 5c 8c 3d
       0.07738132 0.061756637 0.030397477 0.06853631
000250 9b 07 a4 3c fc 52 1e bd 39 95 1c bd 6e 6b a4 3d
       0.020023158 -0.03865336 -0.038228247 0.08028303
000260 a0 07 d5 3d e7 68 e3 3d 15 b0 87 3b 44 5a 1c 3d
       0.10401845 0.11103993 0.0041408637 0.03817202
000270 35 47 7a 3d 01 06 d0 bd dc b7 08 be 26 4a 09 3c
       0.061103065 -0.10157395 -0.13351387 0.008379495
000280 38 0a 1a bd b1 96 c4 bd 6a ef 01 be ad 3e a1 bd
       -0.0376074 -0.095990546 -0.12688985 -0.078732826
000290 fa 73 97 3d 5a 45 16 3c d7 b5 64 bd c5 96 e3 3d
       0.07395168 0.009171808 -0.05583748 0.111127414
0002a0 f3 df d5 3d 8f f6 bd 3c 40 81 1b bd 70 ca f4 3d
       0.104431055 0.023188857 -0.03796506 0.119526744
0002b0 ed ed b4 bd f1 dd 1a be 64 2f 69 3d fc d3 5e bc
       -0.08834443 -0.15123726 0.05692996 -0.013600346
0002c0 6f cd 13 3d 33 f8 03 3e 10 7c bf bd 5a 6a 90 bd
       0.03608459 0.12887649 -0.09349835 -0.07051535
0002d0 29 6e e0 3b 83 82 1b 3d 94 ec 80 3c 93 64 82 bd
       0.0068490696 0.037966263 0.01573781 -0.06366839
0002e0 a8 48 77 bd ea 63 9a 3c 4a 40 ca 3d 2e 6e c0 bc
       -0.060372025 0.01884647 0.098755434 -0.023490038
0002f0 d4 cc 7f bc 53 37 5b 3d 35 a1 3a bc 97 2e ef bc
       -0.0156128 0.05351956 -0.011390974 -0.02919702
000300 31 35 51 3d 46 90 a5 3d 51 47 d1 3d 19 99 ca 3d
       0.051076118 0.080841586 0.10218681 0.09892482
000310 2f 2a 72 bc 44 81 27 3d 28 6f 44 3d 33 98 2c 3d
       -0.014780565 0.04089476 0.04795757 0.042137336
000320 7e 30 73 bd 21 17 87 3d 4c ce 1b 3c af af d8 3c
       -0.059372418 0.06596208 0.009509634 0.02645096
000330 49 ca 35 bd e8 9b 80 3c 72 bd 86 bd bb 97 83 bd
       -0.044382367 0.015699342 -0.065791026 -0.06425425
000340 38 fb f7 bd c7 7f d2 bc eb 85 12 3d 84 20 8a 39
       -0.12108463 -0.025695695 0.035772245 0.00026345637
000350 4d 7d 63 ba 8f 55 e7 3d 65 7d 2b be 79 52 55 bd
       -0.0008678034 0.11295616 -0.16747053 -0.052080605
000360 0b 97 02 3e 64 29 39 3d c3 a2 ee bc 7e a5 bf 3c
       0.12752931 0.04520549 -0.029130345 0.023394343
000370 e1 cf 84 3d eb 3e 95 bb 0c 4f 9c bd 66 42 90 bd
       0.06484962 -0.0045546195 -0.076322645 -0.070439145
000380 57 1c e4 bc d8 b0 49 bd 9a 28 f0 bd b8 d9 cb bd
       -0.027845545 -0.049240917 -0.11726494 -0.09953636
000390 62 36 6a bd 37 ff 4c bd 14 fc c2 bd f5 56 da bd
       -0.05718077 -0.05004808 -0.09520736 -0.10661117
0003a0 0a 5b 02 3c 07 eb e8 3d e1 0d 93 38 62 e1 5c bc
       0.007956276 0.11372953 7.0120914e-05 -0.01348147
0003b0 89 c9 91 3d df 4d ac 3d e5 c7 cb bc e3 3a 13 bc
       0.07118518 0.0841329 -0.02487559 -0.008986208
0003c0 45 9b 87 3b 30 76 c0 bb e8 4e 26 3e 4c b4 10 bc
       0.0041383826 -0.005873464 0.16241038 -0.008832049
0003d0 d7 68 64 3d d6 d4 d5 bb e4 5c df 3b 19 f6 7e 3d
       0.055764046 -0.006525616 0.0068164933 0.062246416
0003e0 3d 44 08 3d 85 86 89 3c be 71 3e 3c e9 91 e5 bd
       0.033268202 0.016787777 0.011623798 -0.11209471
0003f0 94 de 28 3d d0 e6 89 bd 08 29 eb bd 6c e1 d7 3c
       0.041227892 -0.06733477 -0.114824355 0.026352607

conv3.bias f4 [120]
000000 df a8 8b 3d f0 6c d0 bd c4 88 8c bd 4e b4 c9 bc
       0.06819319 -0.10177028 -0.068620235 -0.024622109
000010 f6 81 8a bd 44 6c 25 3b 1a 12 5e 3c 92 18 0b bd
       -0.06763069 0.0025241533 0.01355412 -0.03395898
000020 1f 8c 2b 3d c1 e8 45 3d f1 88 a6 3d d1 5f 4c bd
       0.041881677 0.048317675 0.08131588 -0.049896065
000030 18 ec 4f bd c1 0d fc bd 20 99 68 3d 6a a1 e8 3c
       -0.050762266 -0.12307311 0.056786656 0.02839728
000040 5d 94 3c bd 05 6b 41 3b f5 82 9e bd 3d 58 81 bd
       -0.046039928 0.0029513252 -0.07739822 -0.06315658
000050 7b b8 ca bc 04 8c c0 bc 11 99 8f bc 92 ce 21 3a
       -0.02474617 -0.023504265 -0.017529042 0.0006172444
000060 3e 02 0b 3d a5 f6 80 bc ff b9 44 3c fc da 12 bd
       0.033937685 -0.01574261 0.012007236 -0.03585337
000070 34 2a 27 3d 80 6b 23 3c 82 5c 17 3c e8 78 c1 3c
       0.040811732 0.0099743605 0.009238364 0.023617223
000080 65 34 17 3d 6f 01 b8 3c 9f 20 aa 3c f0 fe 67 bc
       0.0369152 0.022461621 0.020767508 -0.014159903
000090 46 bd 42 3c 95 da ce bc ca 6b e5 bc 4e 77 97 3d
       0.011885947 -0.025250712 -0.0280055 0.073958024
0000a0 53 7a c8 bb 43 e7 b4 bd b0 c0 19 3d 3f a8 d3 bc
       -0.006118098 -0.08833172 0.037537277 -0.025837062
0000b0 a1 c3 85 bc 3b 4f 9c bc 79 89 1d bd 08 d9 8c 3c
       -0.016328635 -0.019080749 -0.038461182 0.017193332
0000c0 2c a6 9e 3d f0 25 a2 bc ec d9 5f bd 20 f8 90 3d
       0.077465385 -0.01979348 -0.054651186 0.07078576
0000d0 ed 16 7c bd 8a a7 64 3d 34 dd b5 bc fa b1 18 3d
       -0.0615453 0.05582384 -0.022200204 0.037279107
0000e0 cf 5c 1d 3d e7 9d c6 3c 1c c4 32 bd 52 f6 ad bc
       0.038418587 0.024245216 -0.043644056 -0.021235619
0000f0 1f de a7 bd 29 4f 37 bd 55 fd 96 3c 3f 7d 2e bd
       -0.08196663 -0.044753227 0.018431345 -0.042599913
000100 7f 04 99 3d 9c 16 66 bd 20 28 a7 3b a4 63 c5 3c
       0.07471561 -0.056173906 0.005101219 0.024095364
000110 f2 03 88 bd ea 65 88 3c be ce 8d 3c 34 e9 ef 3c
       -0.066413775 0.016650159 0.017310496 0.029286005
000120 6b d1 70 3d 5f bd 88 bc 39 09 ae 3c 98 bf 23 3d
       0.058793467 -0.016691862 0.021244632 0.03997764
000130 bf de 2a 3d c9 e1 91 bd 0c 7d cc 3c 9f fa ba bc
       0.041716333 -0.07123143 0.02496197 -0.022824584
000140 90 91 b4 3c 52 f7 52 3d 00 66 7b 3d 5a 91 76 bd
       0.022042066 0.051505394 0.06137657 -0.06019721
000150 8f 8b 3b bd f7 28 3d bd 5f 93 b0 3d 6d f1 3a 3d
       -0.04578739 -0.046181645 0.08621859 0.045640398
000160 53 45 18 bd 86 9d 3b 3c d0 4e 85 bd bd 55 7e bd
       -0.037175488 0.011451131 -0.06509173 -0.062093485
000170 f3 eb 87 bc 0d d4 ed 3b 35 99 36 3c f4 61 c8 bd
       -0.016592002 0.0072579444 0.011144926 -0.09784308
000180 2a 1d b6 3c 6e 57 aa bc a6 a2 b3 3c 70 53 07 bd
       0.022230703 -0.020793643 0.021928143 -0.033038557
000190 7a ec b7 3c dd f6 e8 3a 95 3f aa 3d 1c c6 f6 3c
       0.022451628 0.0017773766 0.083129086 0.030123763
0001a0 4f 56 d1 bc 20 8c db 3c 1e e7 bc 3c e3 c0 1f bc
       -0.02555385 0.026800215 0.023059424 -0.009750578
0001b0 a2 d1 58 3d 58 c8 3c bd b9 87 a8 3d 39 02 d8 3c
       0.052934296 -0.0460895 0.08229012 0.026368247
0001c0 6e 13 49 3d ee 65 c4 bd c1 e7 98 3c c0 da 30 bc
       0.049090795 -0.09589754 0.018665196 -0.010794342
0001d0 c4 9f 3f bc 84 a8 36 bd d3 65 df 3c af 19 14 bd
       -0.011695806 -0.044594303 0.027270233 -0.036157306

fc_1.weight f4 [84, 120]
000000 37 2e e6 3d 8c c9 09 3e 9e b0 8a bd 97 e4 0f 3d
       0.112392835 0.1345579 -0.06771968 0.03513011
000010 c5 9c a7 bd 7d 47 2c 3c 2b 58 c5 bc 65 b2 16 3d
       -0.08184198 0.010515091 -0.024089893 0.036791224
000020 83 39 45 bd 1a 7e 86 3c 77 bd 61 bd 95 83 f9 bd
       -0.04815055 0.016417552 -0.05511233 -0.121833004
000030 c6 9d 0f be 28 f1 9c 3d b9 35 7a bd 91 24 d5 3c
       -0.1402503 0.076631844 -0.06108639 0.026018413
000040 55 91 24 3c ff a9 90 3d 5e 27 e9 3d 57 0c 3c 3d
       0.0100444155 0.07063674 0.11384462 0.045910206
000050 56 79 cc 3d 86 5e 6e 3d a9 5a 92 3d ac 6d d2 3d
       0.099840805 0.058195613 0.07146198 0.102748245
000060 84 2e 74 3d 32 ee d4 3d ba 9f 88 3d d6 51 92 bd
       0.059614673 0.10396995 0.066710904 -0.07144515
000070 37 aa dd bb 50 22 0e 3e 7e 01 80 bd 24 31 29 bd
       -0.006764676 0.13880277 -0.062502846 -0.04130663
000080 50 6b 95 bc 5b d9 5c 3c 96 98 14 be cd 89 ce 3d
       -0.018239647 0.013479556 -0.14511332 0.10084877
000090 b5 fe 8b bd 4e 59 2e bc 02 bc 83 3d f5 d5 36 bd
       -0.06835691 -0.010641409 0.06432344 -0.04463764
0000a0 ce 1d b6 bd 79 95 a5 3c 7b 23 83 bc 84 73 eb 3b
       -0.088924035 0.020212876 -0.01600813 0.0071854014
0000b0 23 fd 75 3d 12 26 5c bd 6a db a9 bd 42 4c 8f bd
       0.060055863 -0.053747244 -0.08293803 -0.06996967
0000c0 e7 e3 0f bd 51 60 2d bc ca c3 a2 bd 37 bb 27 be
       -0.035129454 -0.010582046 -0.079475 -0.1638001
0000d0 af f8 1a bd 17 82 64 bd 6c 77 a4 bc 5f 8e 6f bd
       -0.03783482 -0.055788126 -0.020076476 -0.058485385
0000e0 89 2c ba 3c 49 31 89 3d d9 d8 46 3d 81 c0 86 3c
       0.022726314 0.066988535 0.048546646 0.016449215
0000f0 cb 59 33 bb 2c 57 78 bd b7 f0 a9 3d 8c 89 0f 3e
       -0.0027366753 -0.06063001 0.08297866 0.14017314
000100 fb b0 b8 3d 30 9e fb bb 9c ef ce 3d 76 11 e1 bd
       0.09018131 -0.0076787695 0.101042956 -0.109896585
000110 ab a7 a3 3c bb a3 3b bd 0d e4 c5 bd 40 71 57 3d
       0.019977411 -0.045810442 -0.09662638 0.052598238
000120 44 79 04 3c 09 3b 5f 3d c7 98 b4 bb 41 fc 27 3d
       0.008085553 0.05449966 -0.0055113765 0.041012052
000130 90 1b 15 3d ae 6f 17 3e 6c fc 25 3c 1e f0 bd bd
       0.03640324 0.14788696 0.010130983 -0.09274314
000140 b7 c8 ef ba a9 12 c9 bd 14 3f 91 bc c4 66 66 3d
       -0.0018294071 -0.09818012 -0.017730273 0.05625035
000150 9c eb 4a be 0a 1b 81 3d 6c b4 b9 bd 95 73 d3 3c
       -0.1981644 0.063039854 -0.09067616 0.02581195
000160 1a d5 6f ba d8 ed d4 bd 33 e6 b8 bd cc de 28 bb
       -0.0009148881 -0.103969276 -0.09028282 -0.0025767563
000170 11 09 36 bd a0 d9 ee bc 34 1c 83 3b ac ce 92 3d
       -0.04444224 -0.029156506 0.004001165 0.07168326
000180 7f 74 fa bc 10 6d 94 3d 1b 50 19 bd 6a 8b e1 3c
       -0.030573128 0.072473645 -0.03742991 0.027532298
000190 1a ad b7 bd 2e 05 55 3c 9c bd dc bd 25 25 a4 3d
       -0.089685634 0.013001723 -0.107783526 0.08014897
0001a0 74 3c b4 3d e8 12 78 3d 3e 0c 54 bd a8 7f ec 3b
       0.08800593 0.060564905 -0.051769488 0.0072173662
0001b0 31 6b 26 3c d1 7a 4d 3d d6 56 e3 bd e8 04 b0 bd
       0.010157392 0.050165955 -0.11100547 -0.08594686
0001c0 2c 89 e5 bd 8c 31 84 bd 8a 6c 45 bc d7 28 a2 3c
       -0.11207804 -0.06454763 -0.0120498035 0.019794865
0001d0 6e 0a b5 3d 86 16 75 3d 52 cb 60 bc bc 76 db 3d
       0.0883988 0.059835933 -0.01372035 0.10716006
0001e0 fc d8 85 bd 62 5e 28 bd bf ad b7 3d 3c 29 16 bd
       -0.06535527 -0.041105635 0.08968686 -0.036660418
0001f0 9d 82 e8 3c bf 9e 15 bd e9 86 cc 3d e9 6c 71 bd
       0.028382594 -0.036528345 0.099866696 -0.058941755
000200 a5 ec 4b 3d 3b 0b 00 be ae 07 cf 3c f5 a5 f4 3d
       0.04978623 -0.12504284 0.025272217 0.11945716
000210 d6 83 71 bc 22 97 e1 bd d2 c4 1a 3d d7 62 ac 3d
       -0.014740905 -0.110151544 0.03778536 0.0841729
000220 35 3c d5 3c 98 e0 0c bd f9 8a 0c 3c ca fa 9f bc
       0.026029686 -0.034393877 0.008578056 -0.019528765
000230 5c e5 10 bd 2f e6 1f be ef 98 b1 3d e9 08 90 bd
       -0.035374984 -0.15615152 0.08671748 -0.070329495
000240 09 c4 39 be ee c0 d3 bd 50 b6 00 3e 6e 1d 07 3e
       -0.18141188 -0.10339533 0.12569547 0.1319482
000250 72 d2 6e 3d 0e 89 5e bc e8 62 32 3d ab 9c 0e be
       0.058306165 -0.013582481 0.043551356 -0.13926952
000260 04 b1 a0 3c a2 03 b6 bd 97 0b 8d 3d 60 5b 07 3e
       0.019615658 -0.08887412 0.06886976 0.1321845
000270 3f 63 64 bb c2 1d 97 3d b9 7a c7 bc b9 98 29 bd
       -0.0034849194 0.07378723 -0.02435051 -0.041405413
000280 54 56 da bd e2 60 33 be 77 48 4e be ed ae 8d bd
       -0.10660997 -0.17517427 -0.2014483 -0.0691813
000290 39 d0 67 bd b3 38 99 bd 4a 2c 7d 3d 05 a8 22 bd
       -0.05659506 -0.07481518 0.061809815 -0.039711017
0002a0 46 e6 58 bd c4 f8 06 3d 95 fb 09 3e 39 1e 82 bd
       -0.05295398 0.032952085 0.13474877 -0.06353421
0002b0 f9 20 1c be b0 71 19 bd 06 37 05 be 5d 07 69 bd
       -0.15246953 -0.037461936 -0.13009271 -0.056891788
0002c0 6c c3 8f bd aa 14 2f bd 8c 1b 85 bd ba e4 09 3d
       -0.07019696 -0.042744316 -0.06499395 0.033665396
0002d0 5c f2 2a 3c b4 c8 fa 3c 9d 60 c9 3c 44 95 1d 3d
       0.01043376 0.03061328 0.024582202 0.03847243
0002e0 52 2c d7 bd 60 cf ed 3b df 51 e0 bc 1e ae 83 3c
       -0.105065 0.007257387 -0.02738279 0.016074236
0002f0 6c b7 20 be 87 3b 8e bc 55 f4 b5 bc 1b 9b 28 3d
       -0.1569497 -0.01736237 -0.022211233 0.041163545
000300 90 e8 80 b9 b5 97 69 bd eb f8 13 3d 8d 27 39 3d
       -0.00024587335 -0.057029445 0.03612606 0.045203734
000310 31 50 16 3d 22 ef 42 be 9a 13 0d 3e 4a 86 8f bd
       0.03669757 -0.19036534 0.13777009 -0.070080355
000320 28 0b 5f 3c f2 f4 a0 3c 0d 41 f9 bc ef 8b d4 bc
       0.0136135 0.019648049 -0.030426526 -0.025945632
000330 58 85 57 bc b2 a7 3b 3d 47 1a 49 3c b5 8a ad 3d
       -0.01315435 0.045814224 0.012274331 0.08473722
000340 d1 63 0e bd 73 17 a8 bb 48 ec bb 3d 67 09 05 be
       -0.03476316 -0.0051297485 0.091759264 -0.12991868
000350 a1 2d 27 bd ea 42 ba bc dc 8d ab 3d 83 72 3e bd
       -0.040815 -0.022736985 0.08376667 -0.046495926
000360 3a a1 4e bd 7a 98 ba 3c 95 6e a6 bc e8 71 1e bd
       -0.050446726 0.022777785 -0.020316401 -0.03868285
000370 bd 4e 9b bd 6b 47 b9 bd b1 58 19 bd 13 26 e1 bd
       -0.075833775 -0.09046825 -0.0374381 -0.1099359
000380 52 dd 09 be 3c 95 08 3e cf 70 15 be 5e 91 a2 bc
       -0.13463333 0.13338178 -0.14593814 -0.019844707
000390 c0 fd ea bd e5 c0 37 3c d5 da b3 bc 67 85 50 3d
       -0.1147418 0.011215423 -0.021954933 0.050908472
0003a0 8a 06 f6 3d 72 10 e8 3d ee 66 64 3d ad ee d4 bc
       0.12012966 0.11331262 0.055762224 -0.025992716
0003b0 37 60 f8 bc 28 c6 06 bd 79 17 e9 3d 14 00 87 bd
       -0.030319316 -0.03290382 0.1138143 -0.06591812
0003c0 77 07 0a 3d a4 0b 0a 3e 75 14 e0 bd fd 5d 71 bd
       0.033698525 0.13481003 -0.10941402 -0.058927525
0003d0 b9 ab 75 39 cc 5f 15 3d 69 1f 9d bc af 7b 8c bd
       0.00023428992 0.036468312 -0.019180017 -0.06859528
0003e0 7a ce b0 bd 3c a8 0d 3e 3f bc 5a bd 59 2f a6 3c
       -0.08633132 0.13833708 -0.05340218 0.020286249
0003f0 70 64 85 bc 56 5b e6 3d 9b 49 9f 3c 50 62 53 bd
       -0.016283244 0.1124789 0.019444278 -0.05160743

fc_1.bias f4 [84]
000000 e7 25 e9 3c b7 71 a8 bc 88 bd f9 bd 5a f1 c8 3c
       0.028460456 -0.020562036 -0.12194353 0.024529148
000010 47 6e 48 3d ec 2a aa bc 97 51 96 3d 6e 1e 93 3c
       0.048933294 -0.02077242 0.07339781 0.017958846
000020 f3 c3 bb bd ca 5f 07 3d a9 ce 21 3e 31 d8 e0 bd
       -0.09168234 0.033050336 0.15801491 -0.10978735
000030 55 31 23 3d f6 f9 76 3d cc f8 a6 3c 36 37 9c 3c
       0.03984197 0.060296975 0.020382307 0.019069295
000040 08 0d 05 bc 7b da dd 3b a1 83 ee bd 76 d7 c1 ba
       -0.008120783 0.0067704297 -0.116462 -0.0014788944
000050 2f 6e 5c bd df 38 47 3d 3e 0d 28 3e 20 66 85 bd
       -0.053816017 0.04863822 0.16411301 -0.065136194
000060 68 3f 8e 3d f7 7b 91 3d 5e 22 9e bd ef 0e af ba
       0.069456875 0.071037225 -0.07721399 -0.0013355891
000070 61 59 1d bd 47 41 24 3d 32 6b 2b bd b0 8c 40 bd
       -0.038415316 0.040101316 -0.041850276 -0.04700917
000080 5f 91 99 3d d4 a8 4e 3c 2b 05 8e 3d 20 1a 02 bd
       0.074984305 0.012613494 0.069345795 -0.031763196
000090 f5 a5 b2 3d 33 2c 9d bd cf fd 91 bd 53 07 a5 3d
       0.0872306 -0.07674446 -0.07128488 0.080580376
0000a0 21 2e 1d 3d cf 76 ae bc 09 45 9e bd 8c 24 5c bd
       0.03837407 -0.021296887 -0.07728011 -0.05374579
0000b0 0d c3 dd 3c 96 f6 af 3d fa 99 84 bb 11 67 10 3d
       0.027070547 0.085919544 -0.0040466757 0.03525454
0000c0 73 09 a6 3c e8 d8 cd 3d d7 6b d1 3d d6 d2 d4 bd
       0.020268178 0.10051137 0.10225647 -0.10391776
0000d0 12 53 83 3d ab 30 c8 bd 6c 07 ed 3c d9 e2 ec 3d
       0.06412329 -0.09774908 0.028934203 0.11566705
0000e0 e0 3a 26 bd f9 be b5 bd 22 ec 6e 3c d8 24 9f 3d
       -0.04058349 -0.08874316 0.014582666 0.07770699
0000f0 c0 f4 a9 3d a7 5c a9 bc a2 78 03 3e 34 70 0b bd
       0.082986355 -0.020674063 0.12838987 -0.034042552
000100 9f 11 9a 3d d2 88 c6 bc 7d b3 ad 3d 6d a6 c9 3d
       0.07522892 -0.024235163 0.084815 0.09846196
000110 0a 8a 8f 3d 78 d1 35 bd db 82 dc 3d 45 b8 af 3c
       0.07008751 -0.044389218 0.10767146 0.021450171
000120 23 66 3a bd 55 26 bb 3d bf 2f 75 bc d3 86 fd 3d
       -0.04550756 0.09138171 -0.014964997 0.12379231
000130 b4 72 03 bc 47 f1 a5 3d 26 02 c6 3c 79 8b 6a bd
       -0.008022953 0.081026606 0.024170946 -0.057261918
000140 03 01 cf 3c 0c 16 a0 bd 27 48 58 3d 90 6c f3 bd
       0.025269037 -0.07816705 0.052803185 -0.11885941

fc_2.weight f4 [10, 84]
000000 21 44 3a bd dc 4a 46 3e 7d f6 54 3d 89 16 7a 3c
       -0.04547513 0.19364494 0.051992882 0.015264162
000010 64 e7 91 3d 7e 0b 9c bd 9b 91 23 be 32 94 58 be
       0.071242124 -0.076193795 -0.15973513 -0.21150282
000020 1f 84 33 3d b1 18 f6 3d 92 52 4d 3e f0 74 26 3e
       0.043827172 0.12016428 0.2005103 0.16255546
000030 45 5d 78 3c 61 6c 99 3c 5d b4 bc 3d ca 87 1f bd
       0.015158956 0.018728437 0.09214089 -0.038947858
000040 52 80 3f 3e 80 a9 e1 3c 74 3c a0 3d ed 32 d2 3d
       0.18701294 0.027546644 0.078240305 0.102636196
000050 44 e9 70 3d e6 6e 1b bd 60 1b 98 3d 2c de 51 3b
       0.05881621 -0.037947558 0.07427096 0.0032023294
000060 84 00 a4 bd 8f 87 3c 3e f6 3b 85 bd aa a2 52 be
       -0.08007911 0.18411086 -0.06505577 -0.20569864
000070 60 b6 81 3c 0f ca 12 3d be 72 59 3d fb 61 01 be
       0.015834033 0.03583723 0.053087942 -0.12635033
000080 f3 b6 a3 3d 29 36 a3 3d bf ad bf bd d4 f6 f9 3c
       0.07993879 0.079693146 -0.09359311 0.030513205
000090 44 ef 3e bd 6d 0d 0f be cd 63 5d 3e 25 b9 3a 3e
       -0.0466149 -0.13969965 0.21620102 0.1823469
0000a0 f1 f3 27 be 4a 95 ab 3d e6 45 1e be 00 cd cd 3d
       -0.1640165 0.08378084 -0.15456352 0.10048866
0000b0 de 9d 2d bc 65 6c 6e be be 00 ae 3d 9f 72 da bd
       -0.0105967205 -0.23283537 0.08496235 -0.106663935
0000c0 1d 0b db bd 0d 87 b2 bd 8f e2 05 3e 49 6c c3 bd
       -0.10695479 -0.08717165 0.13074706 -0.09542138
0000d0 22 33 5b 3e f7 82 85 bc 15 1d 7b bc 29 ad 3a be
       0.21406224 -0.0162978 -0.015326758 -0.18230118
0000e0 24 5e 3c be 2d d8 b0 bd 18 8d 50 be a2 81 26 3e
       -0.18395287 -0.08634982 -0.20366323 0.16260388
0000f0 ec af ee bc e0 ec b5 3d 08 bc 4e 3e 93 5c ed 3d
       -0.02913662 0.08883071 0.20188916 0.11589923
000100 5a 89 75 be b1 57 b2 bd 5c 97 94 bd 43 1d 19 be
       -0.23978177 -0.08708132 -0.07255432 -0.14952569
000110 0c c4 fd bd 17 c1 bf 3d 0c b3 10 be 0a be 03 be
       -0.123909086 0.09363001 -0.14130801 -0.12865463
000120 80 a1 c5 bb c6 f6 1d be 6d ab 54 be 9b ac 68 bd
       -0.006031215 -0.15426168 -0.20768519 -0.056805234
000130 0e 45 4f bd ac 42 97 bc 64 52 43 be 4a 8a 57 be
       -0.050602965 -0.018464409 -0.19074398 -0.21048847
000140 9c 11 8e bd ac f2 81 bd dc 0b c9 bc b0 e4 99 bc
       -0.069369525 -0.06345114 -0.024541788 -0.018785805
000150 35 75 7b 3d f9 d7 a5 3c 19 7a b4 bd 01 21 83 bd
       0.061391074 0.020244585 -0.08812351 -0.06402779
000160 85 0b ae be 34 95 7d 3c f9 81 ab 3d d0 17 8c be
       -0.33993164 0.015477467 0.083744 -0.27361917
000170 41 56 f0 3d 7a 3d 69 3e fa 90 3a be ed c7 c0 bd
       0.117352016 0.22777358 -0.18219367 -0.09413133
000180 51 f0 3c 3e a0 68 a4 bc 68 18 22 be 53 84 a0 3d
       0.18451048 -0.02006942 -0.15829623 0.07837739
000190 4b f9 2d be b3 90 1c 3e 04 d0 89 bd 0c f2 cf 3d
       -0.16989629 0.15289573 -0.06729129 0.10153589
0001a0 3d d9 9f bd 7b 6f 53 bd eb 63 6d be 4c f9 4f be
       -0.07805107 -0.051619988 -0.23182647 -0.20309943
0001b0 6a d1 fc 3c 92 ed 32 be e9 4e 5a 3d 96 9a ae 3c
       0.030861575 -0.17473438 0.05329791 0.021313947
0001c0 de f2 1f 3d 2d 0b dd bd 1d 5d 47 bd 1f 30 83 3e
       0.039049976 -0.10793147 -0.048672784 0.2562265
0001d0 6b 8f 53 3e ef 63 27 3e 01 ca 8a 3d 41 5b 5d 3d
       0.20660178 0.16346715 0.067768104 0.054042105
0001e0 24 6e 41 3e 44 0e e4 bd 3c a8 b7 3d 5b 7f bf bd
       0.18889672 -0.111355335 0.08967635 -0.09350463
0001f0 33 d8 b1 3d c4 dd 0a be f6 b0 16 be ab 78 ac bd
       0.08683815 -0.1356116 -0.14715943 -0.08421453
000200 7d 46 87 bd 5c 6e 48 3e d6 46 00 3e 6d 08 45 3b
       -0.066052414 0.19573349 0.12527022 0.0030064837
000210 d8 a2 d7 3d 3b de 41 be 39 8a 44 3d ae 84 ad bd
       0.10529107 -0.1893243 0.047983382 -0.08472572
000220 d2 0f df bb e8 90 5f 3d d1 a0 70 3c 14 06 9e 3d
       -0.006807306 0.054581553 0.014686779 0.07716003
000230 45 67 82 3e 1f 5c 1a 3e 6a df 7d be 04 c7 a4 bd
       0.25469413 0.15074204 -0.24792257 -0.08045772
000240 39 ad 0a bb 84 95 ab 3d 4c 00 0c bd c1 1e 20 3e
       -0.0021160378 0.08378127 -0.03417997 0.15636732
000250 bb de 80 bd 5a 11 3c bc 65 70 37 be 70 9e 62 3e
       -0.062924825 -0.011478746 -0.17913969 0.22130752
000260 20 e7 9e bd f7 bb 6c 3e 1d 5a 11 bd 5d f6 4b be
       -0.07758927 0.23118578 -0.03548633 -0.19918199
000270 e8 0a 6a be 44 29 d8 bd 23 7b 9f bc 8c 79 6c 3e
       -0.22855723 -0.10554746 -0.019467896 0.23093241
000280 d8 f5 02 3d 16 75 65 be 84 8d 0b 3e 66 43 98 bd
       0.031972736 -0.22407946 0.13628203 -0.0743473
000290 61 c2 3f 3e 94 e1 37 3d b5 2b 63 be 64 15 24 3d
       0.18726493 0.044892862 -0.22184642 0.040059462
0002a0 28 69 bb 3b cc d0 68 3e ec 12 bc bc 52 75 08 3e
       0.0057193227 0.227359 -0.022958241 0.13326004
0002b0 b3 a4 5c be 05 2b 72 be 10 8e 69 bd 70 fb 1c be
       -0.21547203 -0.23649223 -0.057020247 -0.15330291
0002c0 f4 9d 33 3d eb 29 ea bc 45 8c ad bd 4e 24 7d 3e
       0.043851808 -0.028584441 -0.0847402 0.2472088
0002d0 0d 6f 5d be 48 ad 99 be b9 84 a4 3d 43 4a 02 3e
       -0.21624394 -0.30015016 0.08033127 0.12723641
0002e0 27 e7 35 be d5 58 d9 3d 44 a2 89 bd f4 e8 54 3e
       -0.17763959 0.106126465 -0.06720403 0.2079199
0002f0 30 b1 90 ba 33 82 8c bd 61 56 dc 3d 74 8d f7 bd
       -0.0011039134 -0.06860771 0.10758663 -0.12087527
000300 2f 17 de 3d e9 8a de 3d 1e 25 12 be 7f 7a ef 3c
       0.10844266 0.10866339 -0.14271972 0.029233215
000310 84 63 ed bd 14 60 3d 3d 36 7d 0d be e9 7d 03 3d
       -0.11591247 0.046234205 -0.13817295 0.0321025
000320 33 f1 1b be 40 42 2a be 2b 79 9f bd 9f f2 55 be
       -0.15228729 -0.16626835 -0.07786783 -0.20893334
000330 a4 55 26 be 24 3a fa bd 51 c6 9f be 57 ea 77 ba
       -0.16243607 -0.12218121 -0.3120599 -0.00094572216
000340 c8 c7 37 3e 56 36 2c 3c da 60 5c bd de 03 41 3e
       0.17947304 0.010511002 -0.053803302 0.18849131
000350 1d ed 47 3e 69 e8 af 3d 51 06 27 3e f8 ca 84 3e
       0.19524045 0.085892506 0.16311003 0.25936103
000360 eb f6 4e 3e 51 a9 1b be d1 13 12 3e 57 4a 8b 3d
       0.20211379 -0.15201308 0.14265372 0.068012886
000370 6b 15 08 3e 41 c6 38 3d df 8e 60 bd b7 dd 9b 3d
       0.1328942 0.045110945 -0.054823752 0.07610648
000380 71 9f 4f 3c 3a 1b d6 bd c8 a9 bc 3d 81 7d 88 3d
       0.012672291 -0.10454412 0.09212071 0.06664563
000390 76 0f 28 be 8a 2a 07 bd 0b 83 c1 bd 41 b2 22 3d
       -0.16412148 -0.032999553 -0.094488226 0.039720777
0003a0 38 5b 1f be 26 ef da 3d ba 7c 39 bb 68 93 cf bd
       -0.15562141 0.10690145 -0.0028303103 -0.101355374
0003b0 29 4c 4c 3d ab a2 3a be 53 7f 07 3d 82 27 03 bb
       0.04987732 -0.18226115 0.03308041 -0.0020012562
0003c0 94 b1 95 3d 8d 3e 41 3e bd 49 33 bd ac 2e e7 bd
       0.07309261 0.18871517 -0.043771494 -0.11288199
0003d0 bd 94 35 bd f6 41 84 be 52 4a f2 3c 5a 71 28 3e
       -0.0443313 -0.25831574 0.029576454 0.1644949
0003e0 58 e1 01 be f2 f1 b5 bd fc 52 fe 3d 28 12 ed 3d
       -0.12683618 -0.08884038 0.12418172 0.11575729
0003f0 4e 5a 35 be e0 c4 f7 3d 10 39 9e bd 77 b3 4d be
       -0.1771023 0.12098098 -0.077257276 -0.20087992

fc_2.bias f4 [10]
000000 93 90 1b bd 36 56 6e 3d 8b e3 65 3d e8 90 04 3e
       -0.037979674 0.058187686 0.056125205 0.12945902
000010 b6 77 61 3b 0a 80 20 3d 2c 0a 4f 3d 83 37 1c bb
       0.0034403629 0.039184608 0.05054681 -0.0023836799
000020 9d 68 11 3e a5 02 ee 3c
       0.14200063 0.029053995

square_avg f4 [6, 1, 5, 5]
000000 7e 3b 52 38 4d 10 20 38 38 a2 a4 38 84 30 0e 39
       5.0123308e-05 3.8162154e-05 7.850345e-05 0.00013560249
000010 4c 1d 10 39 a8 97 53 38 3b de a4 38 bf 66 0f 39
       0.00013743824 5.044756e-05 7.861523e-05 0.00013675819
000020 fd 5e 71 39 2d b1 46 39 2c 89 6b 38 18 51 ca 38
       0.00023018937 0.00018948755 5.6156117e-05 9.6472155e-05
000030 63 79 fe 38 a6 45 82 39 1e 27 5d 39 01 d1 9a 38
       0.00012134274 0.00024847424 0.00021090775 7.382222e-05
000040 9e 44 ab 38 59 c9 99 38 42 34 68 39 97 71 90 39
       8.166696e-05 7.3331124e-05 0.00022144712 0.0002755045
000050 94 61 a5 38 28 96 99 38 a5 c9 c7 38 20 1f 97 39
       7.8859885e-05 7.323577e-05 9.526619e-05 0.00028824154
000060 f9 aa ba 39 93 a1 5c 38 28 f6 a2 38 a8 11 76 38
       0.0003560407 5.2602565e-05 7.770612e-05 5.8667414e-05
000070 dd f2 06 38 0a 5c 99 37 e2 8a 00 38 e0 54 35 38
       3.2174274e-05 1.828188e-05 3.0646923e-05 4.323281e-05
000080 ed 99 2a 38 1d e5 d8 37 d5 51 f4 36 e3 fa 6a 37
       4.0674513e-05 2.5855896e-05 7.281293e-06 1.4005901e-05
000090 70 75 b1 37 99 2c e0 37 65 2d b5 37 e7 30 d7 37
       2.115473e-05 2.6723648e-05 2.159802e-05 2.565277e-05
0000a0 05 ef b5 36 90 b7 9f 37 5d 93 22 38 0d 81 50 38
       5.422046e-06 1.9039755e-05 3.8761053e-05 4.9711252e-05
0000b0 db 77 41 38 33 ed 34 37 55 a9 1f 38 77 ce 48 38
       4.612641e-05 1.0784063e-05 3.8066257e-05 4.7876e-05
0000c0 23 87 e1 37 d4 1c d4 37 3e 9d 83 38 d6 f0 7d 38
       2.6885018e-05 2.5285794e-05 6.2758554e-05 6.0544196e-05
0000d0 bf 5b 8a 38 a8 76 90 38 e2 d2 82 38 f0 a4 64 38
       6.597442e-05 6.8885565e-05 6.238163e-05 5.4513046e-05
0000e0 25 d0 85 38 33 35 7c 38 ca 97 72 38 e5 dd 73 38
       6.380704e-05 6.0131028e-05 5.783866e-05 5.814237e-05
0000f0 7a 10 67 38 60 93 55 38 22 48 11 38 c8 52 f8 37
       5.5090037e-05 5.092041e-05 3.4637873e-05 2.9602452e-05
000100 80 a6 83 38 a4 cc e9 37 6a b5 42 37 94 70 e4 36
       6.27758e-05 2.7871058e-05 1.160554e-05 6.8080353e-06
000110 28 15 93 37 70 ae b1 38 09 b8 fd 37 17 82 f5 36
       1.7533617e-05 8.472509e-05 3.0245648e-05 7.3167134e-06
000120 71 c8 95 36 76 03 1e 37 5e 6e 61 38 2f a3 26 37
       4.4638805e-06 9.41834e-06 5.3746968e-05 9.932365e-06
000130 b4 58 2f 37 31 c5 2a 37 c0 ea a7 37 18 3d 9e 37
       1.0451466e-05 1.0178702e-05 2.0017265e-05 1.8863517e-05
000140 9e 75 55 37 20 07 8a 37 67 35 ad 36 d2 11 65 37
       1.2723174e-05 1.64542e-05 5.1620186e-06 1.3653613e-05
000150 1d 3e 06 37 5e 28 18 38 57 da 6b 38 3f 13 25 37
       8.001484e-06 3.627722e-05 5.623171e-05 9.8392475e-06
000160 bb 77 23 37 0a eb 96 37 00 e0 0f 38 e4 d2 b7 37
       9.743434e-06 1.7990842e-05 3.4302473e-05 2.1913504e-05
000170 87 24 43 37 83 03 f8 37 4d 4c f9 37 b4 61 ae 37
       1.163141e-05 2.9565539e-05 2.9718643e-05 2.0787913e-05
000180 d9 4f 71 37 4e 3d 1a 38 80 6f 04 38 4e 0d de 37
       1.438331e-05 3.6773556e-05 3.1575095e-05 2.6470658e-05
000190 36 3e 0f 38 3e dd 9c 38 8a aa bd 38 08 e2 a8 38
       3.4151795e-05 7.479869e-05 9.043988e-05 8.052966e-05
0001a0 5d f2 6b 38 be 03 6e 38 95 c0 ff 38 e1 82 22 39
       5.6254084e-05 5.6747107e-05 0.00012195219 0.0001549828
0001b0 22 7b 69 38 ec 87 83 37 0b c7 04 39 5c 2b 38 39
       5.5666205e-05 1.567971e-05 0.0001266265 0.0001756376
0001c0 81 ad e3 38 75 71 d6 37 54 65 31 37 ec 90 ef 38
       0.00010856521 2.556362e-05 1.0573614e-05 0.00011423402
0001d0 c5 cd 15 39 91 06 53 39 e3 92 c8 38 03 4e 82 37
       0.00014286402 0.00020124974 9.564103e-05 1.5533535e-05
0001e0 5e a2 d1 38 98 de 33 39 02 e2 15 39 63 9d 85 38
       9.99614e-05 0.00017153693 0.00014293942 6.37125e-05
0001f0 ba 24 84 37 9d 73 fc 37 66 53 14 38 c8 85 b0 37
       1.5752728e-05 3.0094578e-05 3.536362e-05 2.1043132e-05
000200 1b e7 52 37 3b d5 ce 37 66 d3 0e 38 0e b6 10 38
       1.2570784e-05 2.4656407e-05 3.405232e-05 3.4501827e-05
000210 fb 59 d5 37 89 8a b9 38 e3 23 f3 38 8e 5c 6f 38
       2.543348e-05 8.8472916e-05 0.000115938274 5.706824e-05
000220 6d 1f 61 38 95 a8 56 38 02 49 c6 38 bb 35 b6 38
       5.3673448e-05 5.117858e-05 9.4549745e-05 8.688444e-05
000230 a6 45 7b 38 23 58 51 38 5d 62 56 38 c5 97 9c 38
       5.990793e-05 4.9911567e-05 5.1113184e-05 7.466929e-05
000240 f0 83 b4 38 df ee 7d 38 e6 30 db 37 a2 83 43 37
       8.607644e-05 6.0542367e-05 2.6129605e-05 1.1653554e-05
000250 83 50 04 38 1b 1a dd 38
       3.1546235e-05 0.00010542964

acc_delta f4 [6, 1, 5, 5]
000000 df 96 d8 35 06 63 5e 35 f0 85 e4 35 57 ce 47 36
       1.6137163e-06 8.284554e-07 1.7026305e-06 2.9773416e-06
000010 ca 51 3c 36 c4 3d b6 35 09 74 82 35 15 75 fd 35
       2.806179e-06 1.3578033e-06 9.719525e-07 1.8884044e-06
000020 71 5b 31 36 80 42 23 36 f6 e3 76 35 65 2e a6 35
       2.6428281e-06 2.43276e-06 9.197387e-07 1.2381466e-06
000030 52 b5 0d 36 c5 9c 29 36 0b 12 12 36 75 c5 9c 35
       2.111618e-06 2.5274214e-06 2.1766198e-06 1.1680373e-06
000040 db 1f f5 35 bb 4d 25 36 e5 69 2a 36 cf d6 30 36
       1.8263194e-06 2.463216e-06 2.5393613e-06 2.6351079e-06
000050 2a 41 d1 35 d7 08 1d 36 c7 aa 42 36 0f c6 42 36
       1.5590679e-06 2.3399969e-06 2.9007658e-06 2.9023538e-06
000060 97 f7 3f 36 35 14 03 36 68 02 02 36 f4 c4 08 36
       2.8605334e-06 1.9532283e-06 1.937291e-06 2.038022e-06
000070 26 20 14 36 a2 d4 29 36 c3 27 b8 35 aa 6d da 35
       2.2072431e-06 2.530673e-06 1.372064e-06 1.6274182e-06
000080 10 a5 fa 35 a3 f6 ea 35 9c 12 be 35 c5 f5 85 35
       1.8674491e-06 1.7506139e-06 1.4161519e-06 9.9808e-07
000090 71 81 71 35 44 48 6d 35 44 f4 ab 35 41 e9 24 36
       8.996786e-07 8.839454e-07 1.2811583e-06 2.4573676e-06
0000a0 fc 17 31 35 e9 33 87 35 a5 bd b3 35 76 e4 f6 35
       6.597254e-07 1.0073392e-06 1.3391733e-06 1.8394919e-06
0000b0 dc 67 25 36 0d d0 b0 35 10 0c cf 35 1b 9a dd 35
       2.464737e-06 1.3173573e-06 1.5426212e-06 1.6510634e-06
0000c0 52 98 fb 35 bb 44 ff 35 07 34 d5 35 64 72 d9 35
       1.8745288e-06 1.9018984e-06 1.5884879e-06 1.6201052e-06
0000d0 2b 3a c6 35 8a 89 a7 35 23 15 89 35 11 7a 94 35
       1.4769079e-06 1.2482499e-06 1.0213447e-06 1.1062385e-06
0000e0 18 8c ba 35 83 f3 ab 35 35 58 8e 35 10 91 93 35
       1.3898853e-06 1.2811364e-06 1.0605496e-06 1.0994572e-06
0000f0 e0 97 8f 35 7d 92 a8 35 06 b1 ae 35 82 32 b1 35
       1.0698532e-06 1.2559609e-06 1.3015531e-06 1.3202227e-06
000100 7c 7d 05 36 fa 74 4b 35 2c de 54 35 e5 15 87 35
       1.9891586e-06 7.5793616e-07 7.9299457e-07 1.0064656e-06
000110 af 72 21 36 da 35 2a 36 c7 6d a4 35 7e 7c 85 35
       2.4057624e-06 2.536332e-06 1.2250902e-06 9.945504e-07
000120 12 54 59 35 74 45 d7 35 45 e5 06 36 56 a5 0c 36
       8.096114e-07 1.6038962e-06 2.0101008e-06 2.0957864e-06
000130 af 1e b5 35 30 e7 75 35 c3 27 1c 36 38 3e fe 35
       1.3494481e-06 9.1606034e-07 2.3268956e-06 1.8942583e-06
000140 e2 4c 0b 36 79 cb 14 36 d1 cd 81 35 6a 93 d9 35
       2.0757366e-06 2.2172155e-06 9.671149e-07 1.6210663e-06
000150 a5 19 b3 35 43 03 07 36 fd 79 0c 36 f6 e2 aa 35
       1.3344003e-06 2.0118466e-06 2.0932632e-06 1.2732041e-06
000160 b2 49 db 35 98 eb 12 36 72 04 f7 35 f4 ab c5 35
       1.633822e-06 2.189283e-06 1.8404228e-06 1.4727689e-06
000170 68 bd 9f 35 5b e8 27 36 65 6f 45 36 7e e6 ce 35
       1.1901548e-06 2.5020188e-06 2.9420128e-06 1.5415278e-06
000180 b2 e3 a8 35 65 09 15 36 1a f9 1a 36 db 4e 3b 36
       1.2583243e-06 2.2208199e-06 2.3092784e-06 2.7911071e-06
000190 51 23 1b 36 4c 3f 36 36 ab 17 77 36 25 0b 63 36
       2.3117357e-06 2.7156957e-06 3.6819645e-06 3.3832123e-06
0001a0 ce 82 54 36 49 34 57 36 e4 91 96 36 3a 4a 82 36
       3.16666e-06 3.206793e-06 4.4873323e-06 3.882943e-06
0001b0 8e 54 23 36 5a 1e 08 36 ad 6c 86 36 56 c0 71 36
       2.433811e-06 2.0283246e-06 4.0061627e-06 3.6023753e-06
0001c0 8e 7c 39 36 61 db fc 35 5c 76 ea 35 df 34 80 36
       2.7639649e-06 1.8839311e-06 1.7468806e-06 3.8208523e-06
0001d0 dd 7b 65 36 7d 73 44 36 c9 f0 22 36 d0 87 f0 35
       3.4195757e-06 2.92735e-06 2.4280037e-06 1.792092e-06
0001e0 f0 5f 36 36 d2 76 2c 36 7e 13 28 36 cc db 21 36
       2.7175956e-06 2.569916e-06 2.5045297e-06 2.4118808e-06
0001f0 ae 95 00 36 6a 8d d6 35 a1 b9 d3 35 ec a6 01 36
       1.9160611e-06 1.5985399e-06 1.577475e-06 1.931966e-06
000200 3a ad c4 35 f9 3e 4b 36 34 77 e8 35 1d 20 db 35
       1.4653554e-06 3.0286012e-06 1.732004e-06 1.6326118e-06
000210 cd 3d ff 35 3e 27 10 36 1d ab 6a 36 90 d5 34 36
       1.9016967e-06 2.1480514e-06 3.4968318e-06 2.69464e-06
000220 2c 92 24 36 48 27 01 36 2b f6 03 36 62 73 4a 36
       2.4522988e-06 1.9245363e-06 1.966381e-06 3.0167507e-06
000230 13 b1 1c 36 ff e8 1a 36 a1 09 30 36 81 f8 1b 36
       2.3348882e-06 2.308341e-06 2.6231648e-06 2.3241448e-06
000240 3a fd 2c 36 bd 6b 05 36 c4 72 b6 35 8c 12 6c 35
       2.5777395e-06 1.9881256e-06 1.3593458e-06 8.794384e-07
000250 7f 44 15 36 3d 57 2a 36
       2.22426e-06 2.5382753e-06

square_avg f4 [6]
000000 d0 74 96 39 b7 7f fd 38 66 c8 9c 39 93 89 21 39
       0.00028697262 0.00012087769 0.00029903947 0.00015405407
000010 ac 82 1f 39 4f ce 88 38
       0.000152121 6.523413e-05

acc_delta f4 [6]
000000 d7 37 b3 35 55 16 05 36 75 70 6c 35 7c 1b 3e 36
       1.3352791e-06 1.9831543e-06 8.80805e-07 2.8328204e-06
000010 dc 7a ca 35 2f 7e 53 36
       1.508593e-06 3.1514899e-06
